Best_Performing_Networks/best_30_second_net.pth (torch, 20514 bytes, 36 tensors)

linear.0.weight f4 [10, 58]
00000000: dabe 19be 1fad fabd 5bac f83d 1023 acbd
00000010: 9062 7a3d 23c9 91bc 63ab 683f 8148 11bd
00000020: 73c4 bdbe 7a11 153e 1995 78bd f673 3b3d
00000030: ebf9 c8bd 9a35 883d 0428 2bbc 380d 213d
00000040: 2a9b ed3d e7e6 f9bc 4e2c e2bd d07c 0b3d
00000050: e132 1bbd c090 1f3d 0bbd 81bd b351 243d
00000060: f568 ec3d 0152 503d 08d4 9f3c 3fb0 eebc
00000070: 2c1b 7a3b 1fd3 88bc 8bc7 6ebd fe80 3d3d
00000080: ae90 bebd 5c0c 52bd bde9 fe3d 37b1 fc3d
00000090: 5376 78bd b937 4fbd 1310 47bd 08d6 22bd
000000a0: 6721 253d d75c 01be f8db eebd 391f f9bc
000000b0: 1426 b33b d006 9ebd 4943 d23c 2f90 f43c
000000c0: 319a c33d 526c ccbd c52b 04be 5aa6 4fbd
000000d0: ad49 d63d 2362 dabd 9e7c 05be 06de ccbd
000000e0: 19b3 cabd bf9a 3c3d cc8e 813d 3546 153c
000000f0: 46d7 14bd d154 bebd ee70 94bd 1319 c8bd
00000100: 6365 8a3d ec13 de3d 7059 e4bd 8372 eb3c
00000110: d67c e8bd 14c1 053e 1062 803d 6add 61bd
00000120: f881 a1bd fa22 b9bd 80d1 283b ecd1 4b3d
00000130: 76c0 f4bd 8b29 063d 9ce7 01be 1759 363d
00000140: d28e ac3d 1602 28bd 382e 82bd fdc2 3e3d
00000150: ff61 08bc c475 f2bd c967 9abd 04bb d6bc
00000160: ab00 dfbb fa90 b33d b308 27bd 111d 88bd
00000170: 3e0a eabd b446 f4bc 0257 87bd 558a 2cbd
00000180: 29ae ffbd 9ff5 023c 2549 a3bd 8934 ffbd
00000190: 4e80 c23d 048e 043e 666f bc3d 28e5 a33d
000001a0: 0c79 90bd cf2e 133c fb56 40bd c69f adbd
000001b0: 9dde c83d 4605 f6bd ccb4 96bd eb28 083d
000001c0: 1fb6 11bd b8b4 333d 970f 0ebd f1b7 193d
000001d0: f92c d13c 6c4d 26bd 2077 cabb c20b 023e
000001e0: a0b5 fe3d 95bd 073d 4fcf 19bd 1a91 903d
000001f0: 1116 70bd 14c2 083d f3ac efbd feb4 363b
00000200: 4edd c5bd ba57 8f3d 2839 8bbc c054 abbc
00000210: d014 153d 84f8 f1bc d1f7 c93d 1573 f53c
00000220: 8b5d a63d 92c6 f73d 66ba e13b 6aea 89bd
00000230: 8756 b7bd c2b6 d53c eac6 d7bd a161 0a3d
00000240: 21fb dabd 452a e1bd 1673 49bd 0102 60bd
00000250: 30d7 8b3d 5030 8abc 8214 ef3d 0da0 043e
00000260: 11c2 bd3d 8dd9 d83d 5dca ef3d fbfd 583d
00000270: 90a3 b83d e234 b73d 03cb c53d adcb 5b3c
00000280: 1480 e3bd 96b0 e93d 833e 883d 2bdd be3d
00000290: c319 d1bd a04e cd3d 4f69 703d 3aeb a8bd
000002a0: d232 9d3d cedb c6bc 8d55 79bc 499b 04bd
000002b0: 81a3 1bbd b456 f3bd eb91 4fbe 3134 fe3d
000002c0: 14e6 163d bd0c 05be 2279 7abd f8af d73c
000002d0: dcd3 d93d b16c c43d 7aaf 15be bfdf a2bd
000002e0: 74fe 993d d8c0 3d3d 5e52 38bd f820 51bd
000002f0: 5052 f33c d406 06be 0032 783d 38a9 f73d
00000300: 4470 4ebc dc1f e9bd 701a 013e 76a2 7e3d
00000310: 9822 92bc 99ae d8bc 4c55 6c3d 48d9 933d
00000320: 0e67 cebc 0a17 29bc 6db6 c83d 1cef a2bd
00000330: 3ae4 1fbd 7e1d 8abd 2a7b 41bc c2d8 85bd
00000340: 9303 86bd c333 f53d f497 fcbd 18c1 c03b
00000350: 0309 48bd 5e2d 053e 7adc e43d 7b8a 02be
00000360: b02c 2f3c 27b7 c73d f005 5bbc 8d50 27bd
00000370: d353 fb3d 3bdd a13b 69c5 ca3c 85d2 00be
00000380: d0c4 e2bd cd5b a63d 0497 1b3d f584 ecbd
00000390: a3a7 583d 1ae6 0ebd 0ff0 e43d 142c dbbd
000003a0: 6c47 92bc 3c9a 77bd 80a9 943a 3668 063e
000003b0: e095 903b 74f4 143d c2e0 983d 82d7 aabd
000003c0: 56b4 edbd c8bd ef3c 74f3 d9bd 70c3 4bbd
000003d0: 3157 ecbd 9820 c13c 8ce2 f2bd 84bd ebbc
000003e0: 2040 4cbd 2246 01bd 00a6 e93b bc80 dd3d
000003f0: 041f 9fbd f89f 04be 783c 0fbd b974 c3bd
-0.1501421 -0.122400515 0.12142249 -0.08405125 0.061129153 -0.017796105 0.90886515 -0.035469536
-0.3706394 0.14557448 -0.060689066 0.045764886 -0.09813293 0.06650849 -0.010446552 0.039319247
0.11601861 -0.03050561 -0.11043607 0.034054577 -0.03789032 0.038956404 -0.06334885 0.040116977
0.115434565 0.050859455 0.019510284 -0.029136775 0.0038163168 -0.016702233 -0.058295768 0.046265595
-0.09304939 -0.051281318 0.12446926 0.123384885 -0.060659718 -0.05059025 -0.048599314 -0.039754897
0.040315058 -0.12633072 -0.116630495 -0.030410396 0.0054671858 -0.07716143 0.02566685 0.029853908
0.09550894 -0.09981598 -0.12907322 -0.050695755 0.10463271 -0.10663249 -0.13035819 -0.10003285
-0.098974414 0.046046015 0.063260645 0.009110977 -0.036338113 -0.09293521 -0.07248102 -0.097704075
0.06757619 0.108436435 -0.11149871 0.028741127 -0.113519356 0.13061935 0.06268704 -0.055142798
-0.07886118 -0.090398744 0.0025759637 0.049760744 -0.119507715 0.032754462 -0.12686008 0.044518556
0.08425678 -0.041017614 -0.06356472 0.046572674 -0.008324145 -0.11838868 -0.07539327 -0.026212223
-0.0068054995 0.087678865 -0.04077978 -0.06646169 -0.11427735 -0.02981887 -0.06608392 -0.04212411
-0.1248439 0.007993131 -0.079729356 -0.12461192 0.094971284 0.129448 0.09200935 0.080026925
-0.07054338 0.008983328 -0.04695795 -0.0847774 0.09808085 -0.120127246 -0.07358703 0.033242147
-0.035574075 0.04387352 -0.034682836 0.037528936 0.02553414 -0.04060118 -0.0061787516 0.12699798
0.12436986 0.033139784 -0.03755122 0.07058926 -0.058614794 0.033388212 -0.11702909 0.0027878876
-0.09661351 0.069991544 -0.016995028 -0.020914435 0.0363968 -0.029537447 0.0986172 0.029962102
0.08123311 0.12098421 0.0068886755 -0.06734164 -0.08952051 0.026088122 -0.10535987 0.033784512
-0.1069243 -0.109943904 -0.04918202 -0.05468941 0.06828153 -0.01686874 0.116738334 0.1295168
0.09265531 0.105883695 0.117085196 0.05297659 0.09015572 0.089456335 0.09657862 0.013415259
-0.11108413 0.11410634 0.06652548 0.09319528 -0.10209992 0.10024762 0.05869418 -0.08247991
0.07675709 -0.024274733 -0.015218151 -0.032374654 -0.037997726 -0.11881772 -0.20270507 0.124122985
0.036840513 -0.1299314 -0.061150678 0.026329026 0.10636112 0.09591044 -0.1461772 -0.079528324
0.07519236 0.04632649 -0.045000426 -0.051056832 0.029702336 -0.13088542 0.06059456 0.12092823
-0.012600008 -0.1138303 0.12607741 0.062166654 -0.017838761 -0.026450442 0.057698533 0.072191775
-0.025195625 -0.010320434 0.0980042 -0.07955763 -0.039036013 -0.067439064 -0.01180915 -0.06535484
-0.065436505 0.119727634 -0.1233367 0.0058823936 -0.04883672 0.13005587 0.11174865 -0.12748139
0.010691807 0.097517304 -0.013368115 -0.040848304 0.122718476 0.004939703 0.024752336 -0.12580307
-0.11072695 0.08122978 0.037985817 -0.11548797 0.052894246 -0.03488741 0.111786 -0.107017666
-0.017856322 -0.060449824 0.0011342019 0.13125691 0.0044123977 0.03636594 0.07464744 -0.08341886
-0.11606662 0.0292653 -0.10642138 -0.04974693 -0.11540068 0.023575112 -0.11859617 -0.028776892
-0.049865842 -0.031561024 0.0071303844 0.1081557 -0.07769588 -0.12951648 -0.034969777 -0.095437475

linear.0.bias f4 [10]
00000000: 9eab 0fbd bbde dbbd 528a d83d 9e71 d33d
00000010: aa6e 49bd 8481 bbbc 4fe8 bd3c 1dce a53d
00000020: 960e cebd f47b cc3d
-0.035075776 -0.10735842 0.105732575 0.10324405 -0.049177803 -0.022888906 0.023182062 0.080959536
-0.10061376 0.0998458

linear.1.weight f4 [10, 10]
00000000: 86ef cc3d d836 e83d 1ce7 b2bd 1275 57be
00000010: 2baf 14be 82fc 793d 425d 053e f546 963e
00000020: 69c1 a93e 0083 82bb 8f17 253e cdf9 893d
00000030: 33cb 523d 38c0 2a3d a5f6 803e 03d6 b63e
00000040: 4db3 9dbd 6ace febd 47de 1cbe 446d 213e
00000050: 6b4c 50be bcb4 3fbe d3c1 8fbd 70b3 87be
00000060: 3244 d0bd 5e3b 30bd 4357 a5bd f048 ec3d
00000070: d683 5bb9 6c66 ebbd a72f 71be 0394 21be
00000080: d51f 2e3e 5c32 9c3c 2824 173d b8bd 073e
00000090: aff1 513e d97f e0bd 283c b5bd 5a8c 653e
000000a0: 6775 66be 44ab 9cbd 155a a03e bcbf 84be
000000b0: e848 1f3d 80fa 0c3b 39da 8a3e 092f 93be
000000c0: e362 58be 3889 b83d 8006 b33d dd98 a33d
000000d0: 027e 773e 13a8 bd3d c063 2ebc c326 70bc
000000e0: 1182 13be 7178 973e 4b4b 903e f0a4 86bd
000000f0: bcc5 a73d b98f e4bd edf6 4a3e 85ff d4bd
00000100: 02f3 7ebe fad9 8b3e 02a6 e23d 02f2 83bd
00000110: a0c3 3e3d d06e 42bd 7c04 85bb d756 8f3e
00000120: 8baf 993e c81b 723e 4085 263c 0a92 3abe
00000130: fd25 133e c549 573e 25d4 a53e 7679 e0bd
00000140: ed9d 01be 9dcd 9e3e 4cf1 653e 1d7c 89bd
00000150: 06cb 9dbe edc4 c23e e060 e2be 7e05 0d3e
00000160: 5f18 0f3e f003 013d 7776 89be bce0 9cbe
00000170: 0c33 9cbb 5700 edbd 2a34 273e 02a1 983e
00000180: d858 5bbe 7689 913e d264 adbe eb68 83be
0.10006623 0.113385856 -0.08735487 -0.21040753 -0.14519946 0.061031826 0.13023856 0.2935101
0.33155373 -0.0039829016 0.16122268 0.06737099 0.051463317 0.04168722 0.25188175 0.35710153
-0.077002145 -0.12441714 -0.15319167 0.15764338 -0.20341651 -0.18721288 -0.07019391 -0.26504087
-0.10169257 -0.043025367 -0.080732845 0.11537349 -0.0002093458 -0.11494145 -0.23553334 -0.15779118
0.1700433 0.019066982 0.036899716 0.13255966 0.20502351 -0.10961885 -0.088493645 0.22416821
-0.22505723 -0.07649854 0.31318727 -0.25927532 0.03888789 0.0021511614 0.27119616 -0.28746822
-0.21131472 0.090105474 0.08741474 0.07988141 0.24169162 0.09260573 -0.010643899 -0.014657679
-0.14405085 0.29584077 0.28182444 -0.06574428 0.08192012 -0.111602254 0.19820757 -0.10400299
-0.24897388 0.2731474 0.1106682 -0.06442644 0.04657328 -0.04746896 -0.0040593725 0.2799594
0.3001674 0.2364341 0.010163605 -0.18219772 0.1436996 0.21024235 0.32388416 -0.10960667
-0.126579 0.31016245 0.22455329 -0.06713126 -0.30818957 0.38040867 -0.44214535 0.13771626
0.1397414 0.031497896 -0.26848194 -0.3064021 -0.0047668274 -0.115723304 0.16328493 0.2981034
-0.2142061 0.28425187 -0.33865982 -0.25665984

linear.1.bias f4 [10]
00000000: 7e60 ad3c 4b23 113e f943 093d 103f 913e
00000010: 18e0 15be d7d5 43be c286 4a3e cbca 8e3e
00000020: 8726 003e 5ccc 893e
0.021164175 0.1417362 0.03351209 0.28368425 -0.14636266 -0.19124542 0.19777969 0.27889094
0.12514697 0.26913726

linear.2.weight f4 [10, 10]
00000000: 4822 28bd f2e7 5abe eb10 09be 524b 4ebe
00000010: 8fc4 94be d566 76be 1058 933c c0c5 97be
00000020: 6615 0ebe 18d7 773d 7dae 553e aaa7 4c3e
00000030: 255e 933e fce2 233e a011 803d 575a a13e
00000040: 9844 493e d1a2 633d 56b8 73be b93f c1be
00000050: d935 bdbd 873d 683d 8110 6d3e 532f 73be
00000060: 1078 8b3e 620f 2e3e c531 583e b540 95bd
00000070: 4da2 6abe a541 a53d a0f6 203e 27ed 24be
00000080: e1f7 273e 8ab6 943e 0e21 933d 3ac3 083e
00000090: 3347 d73c fd60 55be beee c03e de08 853e
000000a0: b9d1 dd3d 401a 4b3e c881 3bbe 3b00 99bd
000000b0: a448 7cbe 3713 58be d106 7bbe e808 4fbd
000000c0: b2a7 f83d b862 07be a510 883d 29d9 ba3d
000000d0: 22a6 033e 42b2 9e3d 10ce 5cbd def1 833e
000000e0: 43c0 103d e479 2d3e 9973 2e3e 7712 b9be
000000f0: 71b4 21bd bb7c 873e ccf6 13bd 2eb1 9a3e
00000100: 69f0 9cbd e0d6 653e cfbc 6cbd 3bbe 6e3b
00000110: 698d 30be 58bb 6e3e 9b6d 83be 00f4 ad3c
00000120: f80d 353d 388b cc3d 326e 6bbe 91f3 70be
00000130: 5914 16be 3efb 8dbe 0982 64be c276 0a3e
00000140: 083c 38be d688 823e 3277 1dbe 9799 02be
00000150: 8673 98bd 2330 8f3b 159b 65be ed0b 723e
00000160: aefd 05be 7058 90be 63a0 963e 5fcb f03d
00000170: 9a88 a4bd 8b5c 1d3d a6a0 00be 7be2 ee3d
00000180: 9365 88bd a137 913d f59b b6be fcd0 e8bc
-0.04104832 -0.21377543 -0.1338536 -0.2014592 -0.29056212 -0.24062665 0.017986327 -0.2964306
-0.1387535 0.060507864 0.20867343 0.19985834 0.28782764 0.16004556 0.06253362 0.31514236
0.19655073 0.055575196 -0.23800787 -0.3774393 -0.09238786 0.056699302 0.23150827 -0.23748522
0.27240038 0.16998056 0.21112736 -0.072877325 -0.22913475 0.08069161 0.1571908 -0.16106091
0.16403152 0.29045516 0.07184039 0.13355723 0.026279068 -0.2083778 0.37682146 0.25983328
0.10831017 0.19834232 -0.18311226 -0.07470747 -0.24637085 -0.2110108 -0.24514319 -0.050545603
0.1214136 -0.13221252 0.066438 0.09123451 0.12856343 0.07748844 -0.053907454 0.25770468
0.035339605 0.16941029 0.17036285 -0.361469 -0.039478723 0.2646235 -0.036124036 0.30213302
-0.07663042 0.2244525 -0.05779725 0.0036429304 -0.17241444 0.23313653 -0.2566956 0.021234512
0.044202775 0.09987491 -0.22991255 -0.23530413 -0.146562 -0.27730745 -0.2231523 0.13521865
-0.1799165 0.25495023 -0.153775 -0.12753902 -0.07443909 0.004369752 -0.2242244 0.23637362
-0.13085052 -0.28192472 0.2941924 0.1175754 -0.08033867 0.038418334 -0.12561283 0.116642915
-0.06659999 0.070906885 -0.3566586 -0.028419964

linear.2.bias f4 [10]
00000000: b649 9cbe c875 77bd 4347 12bd 6997 92be
00000010: 164a 8abe e23c cc3d a671 86be 40b9 5d3d
00000020: 9720 8b3e 876b ab3d
-0.30524987 -0.06041506 -0.03571249 -0.28631142 -0.27009648 0.0997255 -0.26258582 0.054131746
0.27173302 0.083701186

linear.3.weight f4 [10, 10]
00000000: 2fa8 43be 50ac 6a3d 491b 17bd 0833 a1bc
00000010: 0635 57be 3756 6dbd 8fbe b93d 509a 2b3e
00000020: 209e 733d a63e 8ebe 48fa 3b3d b59c 81be
00000030: f64e 16be b89d 303e d5f8 d1bb ea84 6ebe
00000040: b5d0 e73d b64d 97bd 483b c93d 8614 53be
00000050: 2e1b dbbd e267 443e e012 653d 37be 81be
00000060: 901a 073e da64 a33d 25a6 6e3e b0ed 6b3d
00000070: 8bc3 b73d 8193 a53e bebd f5bd 7ec4 72be
00000080: 42bc c5bd 21d6 0ebe 9477 233e df29 80be
00000090: 4624 f9bd ecbe b1bd f83e 143e 8c14 8bbe
000000a0: 8066 ce3b 7c8f a53e 4bd5 a73c 6908 d23c
000000b0: 0ef9 91be d87b 483e e0c9 83be 3617 83be
000000c0: 4902 0f3d da46 43be 4e2c 7b3e 688b 5a3e
000000d0: d168 4a3c 3e4c 193e 6515 713e 8d57 0e3e
000000e0: 490e 543e ba5a ccbd 9373 acbd 8c44 0e3e
000000f0: a8ca 7dbd c2cf 33be 19c5 6c3e a262 9abc
00000100: 444f 41be 7cc6 fe3d f9bb e3bd 68b4 84bd
00000110: 0417 c23d 5539 e83d b85f 533d 7911 963c
00000120: 57fb 023e c5c9 753e cefc 62bd 4125 503d
00000130: 492d 3dbd 6ad1 613e 0fc0 97be bddb afbd
00000140: 06e9 603e 1f1d 1abe 6283 68be 7b3c 70be
00000150: 1c51 e03d d3c1 8ebe 2fe2 81be 3fcc 8c3e
00000160: 5867 483d e821 afbd b46c 78be aabd 28be
00000170: 8898 833e 287c 8a3e 44f3 fd3d 5cf0 90bd
00000180: 10cf b43e 7257 113e fc46 a83d d8db 8d3c
-0.19107126 0.057293236 -0.036891256 -0.019677654 -0.2101632 -0.05794355 0.09069549 0.16758084
0.05947697 -0.27782172 0.045892984 -0.2531487 -0.14678559 0.17247665 -0.006407837 -0.2329289
0.113191046 -0.07387869 0.0982576 -0.20613298 -0.106985435 0.19180253 0.055926204 -0.25340435
0.13193727 0.0797822 0.23305567 0.057599723 0.08972844 0.323391 -0.11999081 -0.23707768
-0.09655048 -0.13948871 0.15963584 -0.25031945 -0.12165122 -0.086789936 0.14477146 -0.27164114
0.00629884 0.32336032 0.020487448 0.025638776 -0.28510326 0.19578493 -0.25739956 -0.25603646
0.03491429 -0.19069996 0.2452862 0.21342242 0.012354092 0.1497049 0.23543318 0.13900585
0.20708574 -0.09978242 -0.084204815 0.13893336 -0.061960846 -0.17559722 0.23122062 -0.01884586
-0.18877894 0.12440202 -0.11119837 -0.06479722 0.09477046 0.1133906 0.051604956 0.018318878
0.12791191 0.2400275 -0.055416875 0.050816778 -0.046185765 0.22052541 -0.29638717 -0.085868336
0.21963891 -0.15050171 -0.22706369 -0.23460571 0.109529704 -0.2788225 -0.25367877 0.27499577
0.04892668 -0.08551389 -0.24260217 -0.16478601 0.2570231 0.2704785 0.12399915 -0.07077095
0.35314226 0.14193514 0.08216664 0.017316744

linear.3.bias f4 [10]
00000000: e44c 463d 013f 953e e08a e53d 7086 3ebe
00000010: d066 e1bd 6785 3a3e 1dc0 6ebe 33b8 76be
00000020: 3c66 f7bd b302 6fbe
0.048413172 0.2914963 0.11208129 -0.18605971 -0.11005938 0.18214951 -0.23315473 -0.24093704
-0.120800465 -0.23340873

linear.4.weight f4 [10, 10]
00000000: daaa f0bd b684 40be 5a00 7cbe 885a dabd
00000010: c070 a83b 311c 94be ca8b 6d3e a852 6abe
00000020: d0da f1bc 4010 18bc 2a18 eabd d84f 76bd
00000030: b546 033e 48e5 91be 8e68 83bd a503 02be
00000040: b6ef f3bd 99e4 06be 5ea3 493e f6a4 b83a
00000050: 2b04 1b3d 5b73 523d 8845 2abe 1a23 643e
00000060: a617 03be 241d cebd e047 c3bc 23b0 aabd
00000070: 7072 d2bc fa2a 323e deb7 433e 0a02 91bd
00000080: 7187 6a3e ce6b 793e 7a28 653d 71fc 0d3e
00000090: 4769 99be 5249 e53d 6038 7abc 1bf2 253d
000000a0: d97f 14be d3cf 173e d742 993e 2e4e 20be
000000b0: d640 043e 02d1 cd3d f57d 9cbd 43f8 533d
000000c0: c8f1 323e 92bb 2cbe 8efe 3d3e 5beb 883e
000000d0: c962 2a3e 1e20 743e c97d d73d a9c3 353e
000000e0: 0905 5cbe 87a3 9ebe 8012 783c c076 9abe
000000f0: 423e 0d3e 083a 30bd 1cfb e73c 206c d83d
00000100: a191 aabe bfbe 093e 60eb fcbd bc32 a3be
00000110: 402b 1f3c af5c 8cbe f0ca bb3d 794d 6a3e
00000120: a218 b9be d263 493e 39d5 9b3e d329 9ebd
00000130: 2e5f 3dbe a82e 823e b867 b03d 342e fdbd
00000140: b20d 773e 9eaa 0c3e f06c 4ebd ee96 80be
00000150: a938 3dbe 8028 30bd 7633 adbd b69e 5abe
00000160: ea06 303e c0ea 59bc 74bd a23d 45a4 4d3e
00000170: 8468 7dbe cfbb 853e 6e78 a2bd cad1 f2bd
00000180: c271 763e 210d 873e 10e8 b73c 2731 4d3d
-0.11751337 -0.18800625 -0.24609509 -0.10661799 0.005140394 -0.28927758 0.23197857 -0.22883093
-0.029523283 -0.009281218 -0.1143039 -0.06013474 0.12819941 -0.2849524 -0.064164266 -0.12696703
-0.119109556 -0.1317314 0.19691226 0.0014087248 0.03784577 0.051379543 -0.16628087 0.22279015
-0.1280199 -0.10064152 -0.023837984 -0.08334377 -0.025689334 0.17399207 0.19113109 -0.07080467
0.2290323 0.2435753 0.055946805 0.1386583 -0.29963133 0.11195625 -0.01527223 0.040514093
-0.14501895 0.14825372 0.29933807 -0.15654823 0.12915358 0.10049631 -0.07641212 0.051750433
0.17475045 -0.16868427 0.18554136 0.26742062 0.16639246 0.23840377 0.105220385 0.1775042
-0.21486296 -0.30984136 0.0151411295 -0.30168724 0.1379328 -0.043024093 0.02831798 0.10567498
-0.3331423 0.1345167 -0.12349582 -0.31874645 0.009714901 -0.27414462 0.09169567 0.22881116
-0.36151606 0.19666985 0.30436113 -0.07722821 -0.1849334 0.2542622 0.08613533 -0.12362328
0.24126318 0.1373696 -0.05039686 -0.2511515 -0.18478645 -0.043007374 -0.08457081 -0.21349606
0.17190138 -0.013300598 0.079462916 0.20082195 -0.24746901 0.2611985 -0.079331264 -0.1185642
0.24066833 0.26377204 0.022449523 0.050095703

linear.4.bias f4 [10]
00000000: 369f 6a3e 179e 62be 3b9b 64be 3202 02be
00000010: 4d92 fd3d 7ac2 fabb 4f1b febd 79e9 6cbe
00000020: 976b 83be eae6 9f3e
0.22912297 -0.22130619 -0.2232484 -0.1269615 0.1238142 -0.007652578 -0.124075525 -0.23135938
-0.25668022 0.3123086

linear.5.weight f4 [10, 10]
00000000: 40fe 483d 65af 27be ca8b 633e dd12 1ebe
00000010: f342 73be b238 8cbd b8bd 323e 85ac 86be
00000020: ce1c 713e 205f 0e3e 8504 88be 5a60 a4bd
00000030: 3aad 8ebe 58a5 f7bd 00b3 d9ba 5791 6abe
00000040: 1001 e0bc 3890 47bd 6cbd 5abe 0013 e53a
00000050: 0ff6 9bbe 20f7 a33d 27fb cabc 6e7b 733e
00000060: 9512 9ebd 9601 cc3d 213a 96be d138 61bd
00000070: a84e eabd a2e0 b83d b093 0abd 7a4e 5b3e
00000080: 5da1 37be 197f 13be c2f5 ddbd 2eaf ccbd
00000090: b10a 8d3e 2db7 95be 73cb 943e 0c36 083e
000000a0: f24a 4b3e a551 77bb 20ff 123c 1006 a0be
000000b0: 3094 863e 797f 2dbd a024 28be 04b0 703e
000000c0: 9224 3a3e 0f46 23be 880b 54be 50d4 8a3e
000000d0: 2df5 47be b4f4 993e 6824 7bbe ff6c 5cbe
000000e0: a6ff a93d 7129 983e d86d 0e3d 6b64 5a3e
000000f0: e04f 8e3d 1775 703e c946 c93d 92b4 93be
00000100: ece9 903e 0555 8abd 0ecf a43c 4d1a a43e
00000110: b9a3 8c3e ce82 ef3d e4e5 8cbe 3dca 993e
00000120: 27ee 99be 640f 733b 1eeb a33e dbd2 ad3e
00000130: bc8d dbbc 05c4 9cbe ff4f 90be e9e3 1dbe
00000140: 9444 6ebe deb4 103e c91d dd3c 4a68 d83b
00000150: c83e 52be 7d31 8cbc adc5 46bd fa49 023d
00000160: e0a5 adbc bc8e 92be 3de1 77be ce3a 6abe
00000170: 6072 2abc b840 33be f0a5 a33c 2cc7 f0bd
00000180: d86b 9a3d 283c 7c3d b0cc af3c 24c1 90be
0.049070597 -0.16375501 0.22221294 -0.15436883 -0.23756008 -0.06846751 0.17455184 -0.26303497
0.23546144 0.13903475 -0.26565948 -0.0802619 -0.27866536 -0.12092084 -0.0016609132 -0.22907005
-0.027344257 -0.048721522 -0.21361321 0.0017476976 -0.30461165 0.0800612 -0.024777962 0.23777553
-0.07718388 0.0996124 -0.29341224 -0.054985825 -0.11440784 0.0902722 -0.033832252 0.21416655
-0.17932649 -0.14403953 -0.1083789 -0.099943504 0.2754722 -0.29241315 0.2906147 0.13301867
0.19852808 -0.0037737873 0.008971959 -0.31254625 0.26284933 -0.042357896 -0.16420221 0.23504645
0.18178013 -0.15944694 -0.20707524 0.27115107 -0.19527121 0.30069506 -0.24525607 -0.21525954
0.08300714 0.29719117 0.034772724 0.21327369 0.06948829 0.23482166 0.09827954 -0.28848702
0.28303468 -0.067544974 0.020118263 0.32051316 0.2746866 0.11694871 -0.27519143 0.30037108
-0.30064508 0.003708803 0.32015318 0.33949932 -0.026800983 -0.306183 -0.28186032 -0.15418972
-0.23268348 0.14131495 0.026991742 0.006604229 -0.20531762 -0.017113442 -0.048528362 0.03180883
-0.02119726 -0.28624523 -0.24207015 -0.22873995 -0.010403246 -0.17505157 0.019976586 -0.11756739
0.07540101 0.061580807 0.021459907 -0.28272355

linear.5.bias f4 [10]
00000000: 383f 7fbd 1015 713d 8981 92be 8c1b 8f3d
00000010: 40c3 193e 10b9 173e 7df8 50be 41e8 90bc
00000020: 83bd 8dbe 2022 99be
-0.06231615 0.058857977 -0.28614452 0.06987676 0.15015888 0.1481669 -0.20407291 -0.017688872
-0.27683648 -0.29908848

linear.6.weight f4 [10, 10]
00000000: 08b3 573d 7fa4 903e cd86 5ebe d295 96be
00000010: 38a2 6e3d f052 d63c fc1e d3bd 60ac 633d
00000020: e19b 0abe 16ff 4d3e 8f6b 93bc 1ec4 91be
00000030: 0f82 8b3e 06db 4fbe bf97 493e 2cae 7bbd
00000040: 095d 883d ae5c 393e 5606 773e 6119 903e
00000050: ad16 4cbe 0452 933d 12c9 6abd ef63 37be
00000060: 187b 8a3e e668 583e 4fcc 8a3d d314 1dbe
00000070: 0ede 89be 0652 1d3e 13f6 a83c 9043 f4bc
00000080: e7c5 353e e6dd 99be 867c 2bbe e304 ce3c
00000090: dbfb d8bd 9554 6e3e 5d3d 023e a8a2 63bd
000000a0: 2a33 10be ba83 323e b0f1 0fbe 3876 043e
000000b0: d9f5 3abe 31cc 4cbd 2bfe 783e 3468 b73c
000000c0: 109a ba3d 7c04 59be c76f a93c 0ae7 1a3e
000000d0: 00f4 043e 155d 11be 79e1 d8bd e312 973e
000000e0: 4a88 e83d 7655 6e3d 1ba9 70bd 21b3 9f3e
000000f0: 8e6a 3b3e 0066 a6ba ae48 883e aa28 fabd
00000100: 5508 94be 046a 5fbe 08e5 4dbe 496c 113e
00000110: 45f8 aa3d a0f4 76bc ee8b 4ebe 44dd bf3d
00000120: 118f 69bd 4f62 4bbe c1fa 803e 79b6 9b3d
00000130: 6ea8 30be 6b3f 9b3e 1973 d53c cfc7 21be
00000140: 2a43 45be e026 dd3c f829 5ebe 3ac3 a0bd
00000150: 6007 573d 7c81 a63d fe8f e6bd d49a f4bd
00000160: 0e1b 9abe 0272 24be 111e 8e3e ee6f 283e
00000170: 6ec0 8cbe e856 673d 2451 e0bd 629c 88be
00000180: af40 923e a12c 1ebe f243 483e 2968 813e
0.052660972 0.282505 -0.2173111 -0.2941118 0.058260173 0.026162595 -0.10308644 0.05558431
-0.13536026 0.20116839 -0.017995624 -0.28469938 0.27247664 -0.20298395 0.19686793 -0.0614454
0.0665837 0.1810176 0.2412351 0.28144363 -0.19930525 0.071933776 -0.05732066 -0.17909215
0.27047038 0.21133766 0.0677725 -0.15339975 -0.26927227 0.1536332 0.02062515 -0.029817373
0.17751275 -0.30052108 -0.1674672 0.025148815 -0.105949126 0.23274453 0.1271872 -0.055575043
-0.14082018 0.17433062 -0.1405704 0.12935722 -0.18257846 -0.04999942 0.24315707 0.022388555
0.09111416 -0.21193117 0.020683182 0.15127197 0.12983704 -0.14195664 -0.105898805 0.29506597
0.1135412 0.05818697 -0.05875502 0.31191352 0.18302366 -0.0012695193 0.2661795 -0.12214787
-0.28912607 -0.21817786 -0.201069 0.14201464 0.08348135 -0.015072972 -0.20170566 0.09368375
-0.057021204 -0.1986172 0.2519131 0.07603163 -0.17251751 0.30321822 0.02605586 -0.15798877
-0.19263902 0.026996076 -0.21695697 -0.078497365 0.052497268 0.08130166 -0.11257933 -0.119435936
-0.30098766 -0.16059116 0.27757314 0.16448948 -0.27490562 0.056479365 -0.10952976 -0.2668181
0.28564975 -0.15446712 0.19557169 0.2527478

linear.6.bias f4 [10]
00000000: 81e7 0dbe 8733 7b3e e01d 413e 0811 873e
00000010: d157 90bd 410f b43c 66f5 9a3e afbe 44be
00000020: 70e2 aa3d 1889 c23d
-0.13857843 0.24531375 0.18859053 0.2638018 -0.07048 0.02197993 0.3026535 -0.19213365
0.08343971 0.09498805

linear.7.weight f4 [10, 10]
00000000: e923 59be 0ef9 a1bd edbf 94be 9767 69be
00000010: 2f70 5c3e b73d 123d 1d11 79be 67f4 8e3e
00000020: 9fad 973e 8f33 20be beb1 ecbd fbfe 96be
00000030: dacb 3e3e 53ee 00be 2667 223e 0bec 0fbe
00000040: e1dd 903e 1039 18bd 00ff f23a d479 d5bd
00000050: 0ecf d9bd 97bb 0dbe 3e1f 4f3e 7a97 733e
00000060: 1061 3e3d 95a1 9cbe 4a40 123e 9509 9dbe
00000070: 28ba adbd 401f 773c 4c15 92bd ac54 57be
00000080: 06dd 36be 98c0 6cbc 6796 e23d a232 e93d
00000090: b11b 1a3d 1a0b 693e 244c 823d 5821 143e
000000a0: da67 b9bd 9d24 a1bc 821a 6b3e ee9f 403c
000000b0: 067c 22be 40a8 643e 6d69 243e 93a6 61be
000000c0: f28a 10be 221e 533e a0d9 a6bc 3e38 023e
000000d0: 92c8 04be c57c e2bd 9154 86be 4016 5ebe
000000e0: 26ff 80be 34c5 873e ba4d 783e 8934 993e
000000f0: 364a 91be 8092 583e 5a2e 9ebd 2e48 1d3e
00000100: 0961 8ebe 2365 0b3d 671f 2b3e 93bc 7f3e
00000110: b4b4 9dbe 7d7f 803e a8dc 88bd 089d 69bd
00000120: aafa cabd c846 4a3d 3ccc da3d f82c 0abd
00000130: 42d3 8cbe 92fa 34be 6216 703e b423 cfbd
00000140: beca 363e f541 9fbe fc60 873d 5f31 823e
00000150: 688d 0c3e 8b0d 88be 0002 62bc 140a 87be
00000160: 4474 923d fa11 9fbd 4db8 923e 348c 8a3b
00000170: 4a04 503e e30f 573e 9536 46be e750 03be
00000180: 63ec 0f3d ad9f 203e 0a42 383e 10c4 57bd
-0.21205105 -0.079088315 -0.29052678 -0.22793423 0.2152717 0.035703387 -0.24322934 0.2792084
0.2962465 -0.15644668 -0.11557339 -0.2949141 0.1863245 -0.12590913 0.1585966 -0.14054887
0.2829428 -0.037163794 0.0018539131 -0.104236275 -0.10635196 -0.13841091 0.20226762 0.23788252
0.046479285 -0.30592027 0.14282337 -0.30671373 -0.08482772 0.015083134 -0.07132968 -0.21028394
-0.17857751 -0.014450215 0.11063843 0.113866106 0.037624065 0.22758141 0.06362179 0.14465845
-0.09053011 -0.019670779 0.2295933 0.01175688 -0.15867624 0.22329807 0.16055842 -0.220362
-0.14115503 0.20616964 -0.020367444 0.12716767 -0.12967137 -0.11058954 -0.26236394 -0.21688175
-0.25194663 0.26517642 0.242484 0.29922894 -0.2837693 0.21149635 -0.077236846 0.15359566
-0.27808407 0.034032 0.16711198 0.24974279 -0.30801928 0.25097266 -0.06682712 -0.057034522
-0.099110916 0.04938391 0.10683486 -0.03373429 -0.27504927 -0.1767371 0.23446038 -0.10114232
0.17850778 -0.3110501 0.06610295 0.25428292 0.13725817 -0.26572832 -0.013794422 -0.26374876
0.07151082 -0.07767101 0.28656235 0.0042281393 0.20314136 0.21002154 -0.19356759 -0.1282383
0.035137545 0.15685911 0.17993942 -0.052677214

linear.7.bias f4 [10]
00000000: 762f 243e c6d0 7c3e d0de a1bc 0cd2 babd
00000010: d154 c03d 19e5 3e3e 7b34 bbbd b8a7 a23d
00000020: b885 8fbe d8e9 213e
0.1603373 0.24689016 -0.019759566 -0.091220945 0.093911774 0.18642081 -0.09140869 0.07942146
-0.28031707 0.1581186

linear.8.weight f4 [10, 10]
00000000: 6ccf 473e a0b5 ce3c 3c2e fa3d 1ebb 99bd
00000010: 82cc b5bd 4c23 893e ea05 7cbd 7486 b33d
00000020: 316c 973e 3d20 333e ba79 f8bd fe16 423e
00000030: 0048 5d3a a036 523e 7a62 8c3e 0109 96be
00000040: fa06 e2bd 02dd efbd d839 e63d 4ef7 8bbe
00000050: d991 a13e 86e8 34be c4a0 ce3d 3492 8abe
00000060: 5a27 96bc 001d 123c 96c7 47be 135f 22be
00000070: 9287 4b3e e537 873e 0f99 99be c089 3abc
00000080: 4398 943e 71dd 933e abc1 1abe ff89 923e
00000090: 10ef 85be 12c7 22be c0d1 173d d0a4 a33d
000000a0: a386 083e 6c54 a5bd 2731 803e 162a 1dbc
000000b0: 269e f4bd 00fe 88bd 4db4 b13e 4478 e93d
000000c0: 6e06 8cbd 1862 da3d 3401 8a3d ee14 673e
000000d0: 7729 873e 3893 84be b612 263e fbe5 89be
000000e0: e3fa 82bd 786b 26bd b3e7 9f3e 589e fbbb
000000f0: 8842 3d3d 2462 4bbe 1ab5 63be e8be 9ebe
00000100: 44e2 82be 705b 3c3d 53c7 9dbe 32ab 533e
00000110: 089f d83d 98d7 1f3d e2b1 723e 1691 08be
00000120: 2a13 743e b80e 003e 6483 5cbe 808d 58bb
00000130: c087 acbc 1444 dcbd e190 4cbe bbe5 a0be
00000140: 197c c23d 2287 563e c326 803e 6642 5ebd
00000150: 6428 1bbe de39 d5bd b5e5 813e 5536 89be
00000160: a401 80bd b92a a53c de38 733e 2028 943c
00000170: f0d2 b9bc 521a 57be 6077 1cbe 72f8 f0bd
00000180: d0de 8d3d 044e b93d ee7e a0be 4ede 4fbe
0.19512719 0.02523309 0.1221585 -0.07506393 -0.088768974 0.26784742 -0.061529078 0.08765879
0.2957473 0.17492767 -0.121325925 0.18954083 0.000844121 0.2052865 0.27418882 -0.29303744
-0.11036487 -0.11712076 0.112415016 -0.27337116 0.31556585 -0.17666826 0.10089257 -0.2706467
-0.018329311 0.008918047 -0.1950973 -0.1585658 0.19875935 0.26409832 -0.29999587 -0.011385381
0.29022416 0.28879884 -0.15112941 0.28620908 -0.26158953 -0.15896252 0.037065268 0.0799042
0.1333261 -0.08072743 0.250375 -0.009592554 -0.11944227 -0.06689072 0.3470787 0.11399892
-0.06837164 0.10663241 0.06738511 0.22566578 0.26398823 -0.2589357 0.16218075 -0.26933274
-0.06395509 -0.040629834 0.3123146 -0.007678788 0.046206027 -0.19861656 -0.22237054 -0.31005025
-0.25563252 0.04598564 -0.30816135 0.20670775 0.10577208 0.039023966 0.2370067 -0.13336596
0.23835436 0.12505615 -0.21534497 -0.0033043325 -0.021060824 -0.10755172 -0.19977142 -0.3142527
0.09496326 0.20949987 0.25029573 -0.05426254 -0.15152127 -0.10411428 0.25370565 -0.26799265
-0.06250313 0.020161973 0.23752162 0.01808554 -0.02268359 -0.21006134 -0.15279913 -0.11766137
0.06927264 0.090480834 -0.3134684 -0.20299646

linear.8.bias f4 [10]
00000000: c6c5 1f3d b351 4c3e d344 813d 49b2 843e
00000010: d59c cb3b 1750 63bd 0ac4 bebd d410 9c3d
00000020: 520e 7cbe 848e b13d
0.03900697 0.19953041 0.06311955 0.2591727 0.006213764 -0.0554963 -0.09314735 0.07620397
-0.24614838 0.08669761

linear.9.weight f4 [10, 10]
00000000: b27a 1cbe 3006 f8bd 1075 06bd 2d74 803e
00000010: 1a0b c6bd 2845 7dbe a76f 7fbe d017 c43c
00000020: c223 6dbe ddd7 943e 1dd4 923e 31c8 9bbe
00000030: 323e 1cbe 78cb 913d 0105 77be 686c 46be
00000040: 303c 923d a1be 963e 686b 883d d808 96bd
00000050: a068 04bd 075d 3abe 80fe 7fbe f8a1 643d
00000060: 70a5 d3bc 8e8d 01be 6810 9f3d f25a 373e
00000070: d8c2 04bd 6f94 40be 835f efbd 772f 92be
00000080: c0a4 70bd a097 d73d dd12 b83e efc5 18bc
00000090: bb7a 813e bcc3 d73d f02b 53bd 42cd 9cbd
000000a0: a0eb 3bbd ba0b 10be bac3 88bd 5e09 64be
000000b0: 34a7 97bd 2814 373d 11c3 93be b99f 8ebe
000000c0: c021 25bc 290b 25be 4dd8 903e bbb4 7d3d
000000d0: 2067 713d 5bb7 813e fbd4 0f3e d6ba 82be
000000e0: d006 15bd e85a c3bd d7be 3ebe a97a 9abe
000000f0: 4737 a5bd 10e0 85be 0a44 423e a3fe 3dbe
00000100: f718 213e 5913 583e 1036 143e eaa5 52be
00000110: 4d8d a3be 2020 17bd 50b1 6bbe e8d8 03be
00000120: 1b66 5b3e 9b52 9b3e f816 1c3b f459 223e
00000130: 5e56 733e a8a8 f43d af85 f1bd e686 5d3e
00000140: f0ae 863d 8953 8e3d 2120 83be 50e4 6b3d
00000150: 4f0b babd 7b90 76be d121 36be de06 063e
00000160: 32f1 773e 1b14 9b3e 8c18 533e 3bee 47be
00000170: 40c2 b93b 7861 753d cdfd 2b3e 2668 52bd
00000180: 285c 2dbe 2adb 1cbe 9088 833e a0d0 053e
-0.1528118 -0.12110555 -0.032826483 0.25088635 -0.09670086 -0.24733412 -0.24944936 0.023937136
-0.23158172 0.2907094 0.28677455 -0.3042617 -0.152581 0.07118887 -0.24123003 -0.19377291
0.07140386 0.29442313 0.06661111 -0.073259056 -0.03232634 -0.1819955 -0.24999428 0.055818528
-0.025835723 -0.12651655 0.07766801 0.17905787 -0.03241238 -0.18806623 -0.11688139 -0.28551838
-0.058750868 0.10526967 0.35951892 -0.009324535 0.25288948 0.1053538 -0.051555574 -0.07656337
-0.045879006 -0.14066973 -0.06677957 -0.22269198 -0.07404938 0.044696957 -0.2885976 -0.27856234
-0.010078847 -0.16117539 0.28290024 0.061939936 0.05893624 0.25335202 0.1404609 -0.2553317
-0.03638345 -0.09538823 -0.18627487 -0.30171707 -0.08067184 -0.2614751 0.18971267 -0.18554167
0.1573218 0.2110113 0.14473748 -0.20571104 -0.3194374 -0.03689587 -0.23016858 -0.12875712
0.21425669 0.3033646 0.0023817401 0.15854627 0.23763415 0.11946231 -0.11793076 0.21633491
0.065763354 0.06949527 -0.2561045 0.057590783 -0.09084188 -0.24078552 -0.17786337 0.13088557
0.24213102 0.30288777 0.20614833 -0.19524471 0.0056689084 0.059907407 0.16796036 -0.051368855
-0.16929686 -0.1531798 0.25690126 0.13067865

linear.9.bias f4 [10]
00000000: 0022 96bb 0069 92be 9abb 123e 776b 813e
00000010: 400d a93d c0ad 9bbe a5c0 c33d 2fbc 373e
00000020: 48a9 543e 7593 953e
-0.00458169 -0.28595734 0.14329377 0.25277302 0.0825448 -0.30405998 0.095582284 0.1794288
0.207677 0.29214063

linear.10.weight f4 [10, 10]
00000000: d24a 203e c7b1 a13e 4e70 9ebd 16b7 e0bd
00000010: dc84 193e aac6 89bd 6ffb 3d3e 0f7f a73c
00000020: ab57 f13d 2684 96be c32c 84be 5caf 083e
00000030: b156 9c3e 6d6a 783e 8cfa d7bd aaf3 6d3d
00000040: dc6b 4f3e 770f d2bc 5a1b 1ebd b4bb 73bd
00000050: a4db c23d fd14 813e b87e bdbd 6246 483e
00000060: e399 20be 5e01 aabc cba0 61be c002 6c3e
00000070: 8284 e33d f0d9 b23e 8424 46be 441b c93d
00000080: 2f28 85be 6db0 993e fe50 553e 546f 23be
00000090: 6bcc a0be 3e12 843e 544f 273d ff82 b93c
000000a0: 8aae debd 40b0 80be bcde 133e 71ba 2bbe
000000b0: 29dd 7ebe d000 e8bd bdf3 903e d54d 9e3e
000000c0: f255 543e 741b 5ebe 50d8 e1bc 4042 ec3c
000000d0: 0063 66bc 7a0b 06be bfd6 8f3e 046f d4bd
000000e0: abbe 973b d783 4dbe 7a5a 023d d25c d2bd
000000f0: e0f4 96be 96de 5c3e 3464 c1bd 735d 90bd
00000100: 30df 313e 3a1e 0fbe 8ca5 1d3e 9fd5 793e
00000110: 38e9 8f3e 6e07 76be c005 9bbb 2254 593e
00000120: f700 89be cde4 2f3e eb9c 3ebe 317c fdbd
00000130: 7da2 acbc 85e5 9bbd 5c6a 78be 9f7a 9c3d
00000140: eaf4 7e3e 4ec3 d7bd 58d2 5bbe 762e 913d
00000150: 2598 80be c475 95be ecee 2bbd bf28 373e
00000160: e6ca 2ebe e76c d8bd b074 d0bc 7042 8dbc
00000170: d42d 0b3e 1094 de3c 2634 1c3e 5444 28bd
00000180: 67e0 1cbe e6cc 613e 5daf f8bd 2b51 863e
0.15653542 0.31580946 -0.07736264 -0.10972421 0.14992088 -0.06727345 0.18552946 0.020446328
0.117842995 -0.29397696 -0.258154 0.13348144 0.3053489 0.24259348 -0.10545835 0.058093704
0.20255989 -0.02564214 -0.038600303 -0.05950518 0.095145494 0.25211325 -0.09252685 0.19558099
-0.15683703 -0.020752605 -0.22033994 0.23047924 0.11109258 0.34931898 -0.19349867 0.09819654
-0.2600722 0.30017415 0.20831677 -0.15960437 -0.3140596 0.25795168 0.040847138 0.022645472
-0.108731344 -0.25134468 0.14440435 -0.1677034 -0.24889053 -0.1132828 0.28310958 0.30918756
0.2073591 -0.2169016 -0.027568966 0.028840184 -0.014061689 -0.13090315 0.28093526 -0.10372737
0.0046308837 -0.20069824 0.031824566 -0.1027161 -0.294837 0.21569285 -0.0944294 -0.07049074
0.17370296 -0.13976374 0.15395182 0.24397896 0.2810762 -0.24026272 -0.00473091 0.212235
-0.2675855 0.17177124 -0.18614547 -0.12377203 -0.021073574 -0.07612137 -0.24259323 0.076405756
0.24898115 -0.10535298 -0.21466959 0.0708894 -0.25116077 -0.2919141 -0.0419759 0.17886637
-0.17069587 -0.105676465 -0.025446266 -0.017243594 0.13591701 0.027170211 0.15254268 -0.041080788
-0.15319978 0.22050819 -0.12142823 0.262338

linear.10.bias f4 [10]
00000000: 5577 db3c e309 0e3e 8caa 0d3e 8df4 5d3d
00000010: fd44 8abe 6101 403e f189 87be a342 a73c
00000020: b792 2c3e 7df4 69be
0.0267903 0.13870959 0.1383459 0.0541883 -0.2700576 0.18750526 -0.26472428 0.020417517
0.16852842 -0.22847171

linear.11.weight f4 [10, 10]
00000000: bc64 5bbe 9a80 e83c fdbe 88be bc0e f63d
00000010: 0885 823e c9cf 17be 3cd7 4c3d ac47 c93c
00000020: 5dce 16be 94ea 0dbe 6ca3 8bbe d785 903e
00000030: 3faf 3c3e ed89 283e 2a32 8ebe 7f9c 153e
00000040: 44a6 66bd 0d8a b0bd bb29 d7bd e9a8 6a3c
00000050: eeaf db3d b92c 8e3d f5e2 303e 98ff b3bd
00000060: f721 073e ca76 4ebe 837c bf3d 93eb 243e
00000070: 7521 82bd 5050 a13e 81d2 893e 683d 0abe
00000080: 603b 7dbe 91fd 9b3e b3da 393e f2f2 06bd
00000090: 700a 37be 260d 733e 19d0 9b3e c2a6 cd3d
000000a0: a8d8 2b3e d842 173d 6b2b aa3e 6b7c 2d3e
000000b0: 06af 76be 78cc 95be f6dd f83d 2280 2f3e
000000c0: 11d6 4f3e 42b1 2abe 289a 6cbd e5bd 41be
000000d0: a5a9 9fbe ca3b 96be ce50 e9bd d4f2 75be
000000e0: 2a14 f2bd 7641 5f3e f787 47be eee3 2a3e
000000f0: 6e80 97bd f07c 6ebe c63f 77be 8475 e13d
00000100: 0a5c 6fbe da7a 91be 30da 203e b1d7 8c3e
00000110: 8999 8b3e 3084 713d cbd3 c2bd a3c6 233e
00000120: 580d a6ba ddf8 413d 8f17 8c3e 40cb e4bd
00000130: 9dad 89be 8fc1 a53d a75f cc3d a20f 28be
00000140: a4b4 3e3e eea3 a1bc 2aec 0ebe a622 8f3e
00000150: 837f bcbd c102 02be 87dc 853e ceae 5c3e
00000160: 2d4d 9f3d 1109 45be 1316 7e3e 4c32 5c3d
00000170: 1117 de3d 3505 203c 132c dbbd 4767 9abe
00000180: e29d 9cbe 4bfe 503e 6d1c 9e3e c7e6 12be
-0.21425146 0.028381635 -0.26708212 0.12014529 0.2549212 -0.14825357 0.05000995 0.024570309
-0.14727159 -0.13859016 -0.27273118 0.28227112 0.18426226 0.16458865 -0.27772647 0.1461048
-0.056310907 -0.08620081 -0.10506006 0.014322498 0.10726915 0.06942124 0.17274077 -0.08788985
0.1319655 -0.20162502 0.093499206 0.1610549 -0.06354038 0.31506586 0.26918414 -0.13499987
-0.24729681 0.30466893 0.18149833 -0.032946534 -0.17875075 0.23735484 0.30432203 0.10041572
0.16781867 0.03692898 0.3323625 0.16941993 -0.24090204 -0.2925756 0.12151711 0.17138723
0.20296504 -0.16669181 -0.057764202 -0.18920095 -0.31184116 -0.2934249 -0.113923654 -0.24018413
-0.11820252 0.21802315 -0.1948546 0.16688511 -0.07397543 -0.23289847 -0.24145421 0.110087425
-0.23374954 -0.2841404 0.15708232 0.2750831 0.27265576 0.058963954 -0.095130526 0.15993743
-0.0012668772 0.047356475 0.27361724 -0.11171579 -0.2689027 0.08093559 0.09979182 -0.16412213
0.18623596 -0.019731488 -0.13957277 0.27956122 -0.092040084 -0.12696363 0.26144812 0.21551058
0.07778392 -0.1924174 0.24813108 0.053758904 0.10844243 0.009766866 -0.10701766 -0.3015692
-0.30589205 0.20409505 0.30881062 -0.14345847

linear.11.bias f4 [10]
00000000: 3114 33bd ea73 88be cc49 9c3e 3ff7 363e
00000010: 1221 3ebe da65 71be 970b a0be d342 76be
00000020: 0486 86be f19a 863e
-0.043720428 -0.26650935 0.30525053 0.17867754 -0.18567303 -0.2357401 -0.31258842 -0.24048929
-0.2627412 0.26290086

linear.12.weight f4 [10, 10]
00000000: 16e6 c7bd 185b 26be 85bd bb3c c448 8dbe
00000010: 7201 ebbd 90a5 8abe fd7d 33be 1013 38be
00000020: e06a 383e 4004 3c3b 5012 e73d 88c3 b83d
00000030: da7b b3bd 3c0b 223e 0279 6dbe 2828 2bbd
00000040: d47d 2ebe cea2 703e aacc ccbd 5e1a dbbd
00000050: b8b8 a83d 626a 75be 0012 62bb 5827 6c3d
00000060: ba54 2d3e e4da e43d 5c1d c0bd 5048 b13d
00000070: 2eea 7dbe 080c 67bd 5ac7 163e e41b 68be
00000080: 5138 ddbc 1700 463e 728b b7bc 5702 9c3e
00000090: a02f 1f3d 47ed b53d 6a14 9ebe 7239 a1be
000000a0: afd3 49bd f95f 193e 6afa 893e 2ba5 e33c
000000b0: 5878 8f3e a8ab 0c3d 2aed 78be 436a 673d
000000c0: e661 fd3c d86f e43d bfa5 38be 9a62 5dbe
000000d0: 4cec 75be ad9f 74be 1074 393e e7f2 8d3e
000000e0: ea7b 9cbe dce6 a03e 03cb 943e dc3a 733e
000000f0: 5778 80be 8f0e 8dbe c059 f43d a4ee 0ebe
00000100: 561f a7bd 43cd 923e ee17 edbd 70b8 9dbe
00000110: ed26 62bd 7246 7abd 17d3 31be e229 383e
00000120: e7ef bfbd f4af 6abe b1a6 0c3e 5f4e 47be
00000130: 3e4a 253e ec77 1dbe 56ce 203e 0abb cfbd
00000140: c1b3 4b3e b703 64be 3ea7 2a3d 2846 383e
00000150: f32b 8fbd 902e 11bd ecf7 66be 5e24 243c
00000160: 1a17 a1bd 4df6 41be ba1d 2bbe a748 9abe
00000170: 7337 e93d 2b92 98be dcc3 7ebe b0d5 3abe
00000180: 06b9 a0be 204d 703d 36e9 7d3e 3740 50bd
-0.09760682 -0.16245687 0.022917518 -0.27594578 -0.11474885 -0.2707944 -0.1752853 -0.17976022
0.1800952 0.0028689057 0.1128279 0.090216696 -0.08763857 0.15824598 -0.23190692 -0.041786343
-0.17040187 0.23499605 -0.09999974 -0.106983885 0.08238357 -0.23966363 -0.0034495592 0.05765471
0.16926852 0.111745626 -0.093806 0.08656371 -0.24796364 -0.05640796 0.14724484 -0.2266689
-0.027004393 0.19335972 -0.02240536 0.30470535 0.038863778 0.08883148 -0.3087495 -0.3148914
-0.049274143 0.14978017 0.26948863 0.02778872 0.28021502 0.03434339 -0.24309221 0.056497823
0.03093047 0.11154145 -0.18031977 -0.21619645 -0.24015921 -0.23889036 0.1811068 0.27724382
-0.3056329 0.31426132 0.29061136 0.23752922 -0.25091812 -0.2755017 0.11931181 -0.13958222
-0.08160274 0.28672227 -0.1157683 -0.30804777 -0.055212904 -0.061102338 -0.1736568 0.17984727
-0.093719296 -0.22918683 0.13735463 -0.1946349 0.16141602 -0.15377778 0.15703711 -0.10143097
0.1989279 -0.22267042 0.0416634 0.17995512 -0.069908045 -0.035444796 -0.22555512 0.010018436
-0.078657344 -0.18941613 -0.16710559 -0.30133554 0.11387529 -0.29799017 -0.24879402 -0.18245578
-0.31391162 0.058667302 0.24795994 -0.05084249

linear.12.bias f4 [10]
00000000: 274a f93d 6d28 87be 007a 64be 7cea 6a3d
00000010: db97 a13d 1f97 8c3e 1bb7 8b3e 228c a83d
00000020: 54a4 053d 2b3d 7dbd
0.121723466 -0.2639803 -0.22312164 0.057352528 0.07890292 0.27459046 0.27288136 0.08229853
0.03262742 -0.061825912

linear.13.weight f4 [10, 10]
00000000: bdff 1cbe 8076 a2bc 8ee7 023e 9c37 88be
00000010: 21d5 1ebe 792a 39be d6e9 7abe 9ccb 34be
00000020: ce0d 99bd 5a9b 44be 8a1e 573e 6b2b 9c3e
00000030: c8f1 f23d 0953 903e 5097 a4bc 48f0 ff3d
00000040: bca5 fc3d f0d3 55be 6012 f83d 9a70 83be
00000050: 153f 133d 20d6 e7bc 4149 9d3e e4fd 4cbe
00000060: 5cc9 d63d 88c7 9abe 89d7 973e 09df 953e
00000070: 4120 a0bd 2a04 723d 0506 813e 9797 8c3e
00000080: ce52 7dbe 1fd3 2bbd 351b 82bd 4b5d 9fbe
00000090: cd60 933d 313c 733e 017d 8ebe e93e dabb
000000a0: faed 6ebe e09c 83bd f3ed 71be e669 0fbe
000000b0: aa3f cfbd 8cc5 9fbd 4fdf 403d da64 303e
000000c0: ba36 92be ec74 2b3e 82e1 1abe a275 733e
000000d0: 30e2 b43c d070 85be 9b7b 07be 8063 42bb
000000e0: 9d04 9f3e 4ce7 d53d 88d1 e33d 4d38 82be
000000f0: f448 b2bc 12b9 633e d231 0d3e 9624 0cbe
00000100: cf31 993e 80c1 a9bb 7d5c 513d cbbc 4f3e
00000110: 577b 563e bf96 10be c036 a03c 4003 f43b
00000120: 28a9 4cbd fac7 753e d6b4 fabd 70fc 5ebe
00000130: c004 8c3c a0a3 56bc 2866 f33d 9264 3f3e
00000140: dd0a 66be 2226 5fbe d7e5 82be d827 2f3d
00000150: 4eb4 a23e 763d 853e 028d 56bd 7248 873e
00000160: 835a 58be fd68 9f3e 7aff 5b3e 52df f9bd
00000170: 9d50 28be f009 92be db7b 5cbd ab9e 4bbe
00000180: c0de cabb 36a0 703e 7882 c63d a436 ec3d
-0.15331931 -0.019831896 0.12783644 -0.26604927 -0.1551099 -0.18082608 -0.24503264 -0.17655796
-0.07473336 -0.19199887 0.21007743 0.30501875 0.11862522 0.2818835 -0.020091683 0.12497002
0.12336299 -0.20881629 0.1211288 -0.25671846 0.03594883 -0.028300345 0.3071995 -0.20018727
0.10487625 -0.30230355 0.29656628 0.29271725 -0.07818652 0.059086002 0.25199905 0.27459404
-0.24738619 -0.041949388 -0.063528456 -0.31125864 0.07196198 0.2375343 -0.27829745 -0.0066603315
-0.23332968 -0.06426406 -0.23625927 -0.14005241 -0.10119565 -0.07801351 0.047087964 0.17225972
-0.28557378 0.16743821 -0.15125087 0.23775342 0.02208051 -0.26062632 -0.13230745 -0.0029661357
0.31058207 0.10444507 0.11123949 -0.2543358 -0.021763302 0.22238567 0.13788536 -0.13685831
0.29920813 -0.0051805377 0.051113594 0.20286863 0.20945488 -0.14120005 0.019557357 0.0074466765
-0.049966007 0.24002066 -0.12241523 -0.21775985 0.017092109 -0.013100535 0.11884719 0.18690708
-0.22465082 -0.2179189 -0.2556598 0.042762607 0.31778187 0.26023453 -0.05238057 0.2642246
-0.21128277 0.31134787 0.21484175 -0.12200798 -0.16437002 -0.28523207 -0.053829055 -0.19884746
-0.0061911047 0.23498616 0.09692854 0.11533859

linear.13.bias f4 [10]
00000000: 8021 8bbd fc16 bbbd fd68 0a3d a7cc 103e
00000010: 71a1 a23e 32c1 09be aa11 853e 691a 9abe
00000020: 9acb 16be 336e 82be
-0.06793499 -0.09135243 0.03379153 0.14140569 0.31763795 -0.13452604 0.2599004 -0.30098274
-0.14726105 -0.254747

linear.14.weight f4 [10, 10]
00000000: b0da 9d3c c847 b4bd 27a7 7abe 67ec 0bbd
00000010: f6c9 af3c 1af1 b4bd f1df abbd d087 313d
00000020: 566b 12be 80ba 69be 6696 7a3e 31d5 9bbe
00000030: c012 873e fb83 e83c 8002 3e3d af6e 853e
00000040: 2816 e8bd 0b8a 9b3e ee4c 0cbd 442c 8d3d
00000050: fd29 9dbe 76ed 5d3e f5ce 6bbe 2076 2e3e
00000060: 8bc1 973d aa3c 0fbe 2988 2d3e fd2b 0ebe
00000070: 4778 83bc e718 5f3d 00ce 293b 2374 9fbe
00000080: d999 7f3d 9aab a2be 00c5 40be aa73 f8bd
00000090: 648f 623e 6ecc 783e f8fa 74be ae77 603e
000000a0: 0b10 903e e826 00bd 5933 f1bd 1d44 44be
000000b0: 88c7 903e 249c 1ebe 8e28 ac3e 5012 7abe
000000c0: fed2 2d3e 4774 823e 1531 8f3e bf07 14be
000000d0: 65ee 203e 2701 5b3d 90e1 babd 2586 983e
000000e0: 2f2c e4bd 80c1 113d e403 a03d 4428 6dbd
000000f0: c93a 96be 2a6c 79be 5815 613e 05c0 9b3e
00000100: 5917 0dbe 48fe 13be c212 293e 6a0b 5f3e
00000110: 1d97 493e aba6 81be c011 b03c 54ab 393e
00000120: dd2c 97be 78bd 5a3e dac4 f1bd 4d7e 9c3e
00000130: 24a8 673e ee2a 78be 5c23 073d 0045 9e3e
00000140: b68f 5c3e ee09 603e 2488 ab3d 2092 f0bc
00000150: 2cdb 82bd c026 313e c2e1 66be 2622 7fbe
00000160: f08f 47be 50c4 d0bd 0076 0dbb fa2c 543e
00000170: a540 4fbd a320 dd3d 2664 2e3e 9324 8f3e
00000180: 8862 3c3e d153 85be fff4 91be 00f1 5c3d
0.019269317 -0.08802754 -0.24477826 -0.034160998 0.021458607 -0.08835049 -0.08392323 0.04334241
-0.14298758 -0.2282505 0.24471435 -0.3043609 0.26381493 0.028383246 0.046389103 0.26061007
-0.11332351 0.30378756 -0.034253053 0.068932086 -0.30696097 0.21672615 -0.23028167 0.17037249
0.07409962 -0.13987985 0.16946472 -0.13883968 -0.016048564 0.054467108 0.002591014 -0.31143293
0.06240258 -0.31771547 -0.1882515 -0.12131436 0.22125012 0.24296734 -0.23923862 0.21920654
0.2813724 -0.031287104 -0.11777372 -0.19166608 0.2827723 -0.1548925 0.3362469 -0.24421048
0.16975018 0.25479338 0.27967134 -0.1445608 0.1571594 0.053467896 -0.09125054 0.29789844
-0.1114124 0.035584927 0.07813242 -0.05789973 -0.29341725 -0.24357668 0.21980798 0.30419937
-0.13778438 -0.1445247 0.16511062 0.21781698 0.19686551 -0.2532247 0.021492839 0.18131763
-0.29526415 0.21361339 -0.118051246 0.3056511 0.22622734 -0.24235126 0.032992706 0.30912018
0.21539196 0.21878788 0.08375576 -0.029366553 -0.0638946 0.17299938 -0.22547057 -0.2491537
-0.19488502 -0.10193694 -0.0021585226 0.20720282 -0.05059876 0.107972406 0.17030391 0.2795759
0.18396962 -0.2604051 -0.2850723 0.053940773

linear.14.bias f4 [10]
00000000: bbc9 9e3e 1ee1 6ebe fb8a 793d a539 eebd
00000010: 0c8d 4fbe 8af4 9cbe f127 333e e0cf 863e
00000020: 3ec7 3cbe 7d0e 033d
0.31013283 -0.23328063 0.060923558 -0.116320886 -0.20268649 -0.30655318 0.17495705 0.2633047
-0.1843538 0.03199624

linear.15.weight f4 [10, 10]
00000000: c81e 8ebe eddd a0be 427b 7d3d 4dfc 15be
00000010: 33b2 76bd 2b5d 4ebd a23d ad3d b558 673e
00000020: 7d42 2bbe 543d 963e 615a 9c3b 2339 1ebe
00000030: 9281 ff3d 3e57 28be a50d 4d3e 1c42 1fbe
00000040: 67b8 8e3e 322b 323e c86a 05bd f56f 04bb
00000050: 3002 a6bc 5e23 8bbe 9668 93bd e61b 94be
00000060: d896 033e 90e3 d43c 40ea 8dbe 407e ac3d
00000070: b4ab c9bd 4089 373d 7349 773e c250 d83d
00000080: 11f6 9b3e c7f8 3a3e 0018 a1be 27ac bb3d
00000090: d804 553e 8400 813d 7e08 88be bf76 9e3d
000000a0: b0dd 863e 6b1a 81be 7187 9b3e 5ab0 943e
000000b0: 0188 9e3d 1216 5a3e 0d02 7ebe 014d 253e
000000c0: aeb2 663e 5243 323d 629c 1ebe 84ad 9f3e
000000d0: a5d3 273e 40d5 16be b47b 8f3d f33c b5bd
000000e0: 3e37 40be d08c 873e 382b 153e 566d 03be
000000f0: 8b6a 9d3e 18da ca3d 9eaa a03e 18b6 a0be
00000100: 2d39 89be 0030 b43a 5264 293b 847b 8a3e
00000110: 926d adbd c6a5 95be 8fc4 273d 900d 06be
00000120: 174e f33d 13eb 8cbe 337a 033e d5b6 243e
00000130: a16f 3e3e ab94 12be 7192 923e da7a 953e
00000140: 365c 7d3e 2444 f1bd 25e8 883e 034a 28be
00000150: 511f d03d 614c 10be aa8c 2fbe 0011 8f3e
00000160: b638 7e3e 27a9 b0bd 4ded 983e 9029 183e
00000170: b2cc 4cbd 18c5 39bd 0621 1a3e 10a9 88be
00000180: 5f44 823e 247f 82be bd2c 873e 01e3 66be
-0.2775786 -0.31419316 0.061885126 -0.14647026 -0.060228538 -0.05038182 0.08459021 0.22592433
-0.16724582 0.29343665 0.004771516 -0.15451483 0.124758855 -0.1643953 0.20024736 -0.15552562
0.27875063 0.1739929 -0.032572538 -0.0020208333 -0.020264715 -0.2717542 -0.071976826 -0.28927535
0.12850511 0.025987417 -0.2771778 0.08422518 -0.09847203 0.044808626 0.24149112 0.10562278
0.3046117 0.18258964 -0.31463623 0.09163695 0.20802629 0.062989265 -0.2656898 0.07737493
0.2634101 -0.25215468 0.3037677 0.29040796 0.077407844 0.21297482 -0.2480547 0.16142656
0.22529098 0.043521233 -0.15489343 0.3118707 0.1638933 -0.14729786 0.070060164 -0.08849516
-0.18771073 0.2647462 0.14567268 -0.12834677 0.30745348 0.09904879 0.3138017 -0.31388927
-0.26801434 0.0013747215 0.002584715 0.2704736 -0.084681645 -0.29228038 0.040958937 -0.13091111
0.11880129 -0.27523097 0.12839584 0.1608537 0.1859727 -0.14314525 0.2862735 0.2919529
0.24742207 -0.11780575 0.26739612 -0.16434483 0.10162223 -0.14091636 -0.17143503 0.27942657
0.24826321 -0.08626013 0.29868546 0.14859605 -0.0499999 -0.04535398 0.1505166 -0.26691484
0.25442788 -0.25487626 0.2640132 -0.22547533

linear.15.bias f4 [10]
00000000: bbf7 d53b 2563 2a3e 4e34 95bd 5da3 9e3d
00000010: b3be aa3e 2272 143e 0ef8 1abe af16 8cbd
00000020: 8a91 1abe 2c73 e2bc
0.006529776 0.16639383 -0.07285367 0.07746003 0.33348617 0.14496663 -0.15133688 -0.06840264
-0.15094581 -0.027642809

linear.16.weight f4 [10, 10]
00000000: 243f 163d 8334 27be 527e 5d3e 8cfd 583e
00000010: 04d0 b8bc 8bd4 e8bd 27d6 523d 3082 943d
00000020: f305 51be dc43 9abe 5862 ad3d 60d0 c1bc
00000030: 63f7 983e 586e c53d 1287 2d3e 8ce6 9b3d
00000040: 867f 623e badc 51be d3a3 94be dcc9 69be
00000050: ad3f 8e3e 4001 87be c833 683d 0978 07be
00000060: bf34 87be c0b3 9dbd 9035 213e 2027 31bd
00000070: c693 773e 2c74 84bd 8bb0 863e 230f 9fbe
00000080: 8479 f2bd 4b6f 16be b0d3 9d3d d80d 73bd
00000090: 40a8 ad3c c809 17be 3080 84bc cb90 3ebe
000000a0: 43ef f53c d8e2 843e caba 373e 137c aabe
000000b0: 8743 5cbe 4e36 373e de17 8cbe 5896 623e
000000c0: 3564 f03d c0cb 9b3d 6991 5abe f68e 0bbe
000000d0: 90dd ecbc 2eaa a23e c42b a63e b59e a43e
000000e0: d2b2 a1be cbd9 223e ba63 1dbe 5085 8dbe
000000f0: d83b 073e faf9 8fbd dc02 99be 2c23 23be
00000100: cf6b 81be 7111 833e 33bc 06be 00fd c43d
00000110: bc72 96bd 2598 42bd fb8b 063e 4b0a 0dbe
00000120: 7cf8 29be bb32 dbbd 5113 183e 11c2 6b3e
00000130: 4d48 d33d 225b c73d 2d84 8f3e ef55 443d
00000140: 2eae c33d a0b3 76bd 96f8 3e3e e689 38be
00000150: 7fae 9abe 2c0f 033e 3e27 bcbd 91b9 e7bb
00000160: 98ce f23d 58e7 593d 2776 993e 40eb b43c
00000170: 0daf 913e 5e01 493e 7975 823e 7068 ad3c
00000180: 8000 4c3c 88f4 6dbd 92b9 6fbe 6ee5 e5bd
0.03668131 -0.16328625 0.21630219 0.2119047 -0.022560127 -0.11368664 0.051473763 0.07251394
-0.20412426 -0.30129898 0.08466023 -0.023658931 0.2987624 0.09640187 0.16946056 0.07612333
0.22118959 -0.20494357 -0.29031238 -0.2283091 0.27782956 -0.2636814 0.056690007 -0.13229384
-0.2640743 -0.077003 0.15743089 -0.043250203 0.24177465 -0.064674705 0.26306567 -0.31066236
-0.118395835 -0.14690892 0.07706392 -0.059339374 0.021198392 -0.14749825 -0.016174406 -0.18609922
0.030021315 0.25954318 0.17942348 -0.33297786 -0.21510135 0.1789181 -0.2736196 0.22127664
0.11737863 0.076072216 -0.21344532 -0.13628754 -0.028914243 0.31770462 0.32455266 0.32152334
-0.31581742 0.15903394 -0.15370074 -0.27640772 0.13206422 -0.07030101 -0.29884994 -0.15931386
-0.25277564 0.25599244 -0.1315773 0.096185684 -0.073461026 -0.047508378 0.13139336 -0.13773458
-0.16598696 -0.107030354 0.14851119 0.23023249 0.10316525 0.09734179 0.2803053 0.047933515
0.095547065 -0.060229897 0.18649516 -0.18021354 -0.30211255 0.12798756 -0.09187172 -0.007071682
0.11855811 0.053199142 0.29972956 0.022084832 0.28453866 0.19629428 0.2548025 0.021167964
0.012451291 -0.05809453 -0.23410633 -0.11225401

linear.16.bias f4 [10]
00000000: 3603 343e f624 99be 77f7 15be 4d9e 98be
00000010: 9192 113e f43e f83e dde6 dc3c 7196 133e
00000020: 08a0 e2bd 1535 74be
0.1757935 -0.2991101 -0.14645182 -0.29808274 0.14216067 0.4848553 0.026965553 0.14412858
-0.1106568 -0.23848374
