Best_Performing_Networks/best_3_second_net.pth (torch, 20474 bytes, 36 tensors)

linear.0.weight f4 [10, 58]
0	0xbeb49e1d	-0.3527688
1	0x3de3c73c	0.11121985
2	0x3c0b88ae	0.008516474
3	0x3d47fe78	0.048826665
4	0x3dbe55ec	0.09293732
5	0x3ef55dc7	0.4792311
6	0x3fdbd1b7	1.7173375
7	0x3ee03b32	0.43795162
8	0xbf0c859c	-0.5489137
9	0x3f9f867f	1.246292
10	0xbd976622	-0.07392527
11	0x3e03a928	0.12857497
12	0x3d2b3f98	0.041808695
13	0x3dbb00cf	0.091310136
14	0x3ddc0395	0.10742871
15	0x3e01bbda	0.12669316
16	0x3dad0ca1	0.084496744
17	0x3da8e2b4	0.08246365
18	0x3e454276	0.19263634
19	0xbddad351	-0.10684837
20	0xbd76147d	-0.060078133
21	0xbe01bc9f	-0.1266961
22	0xbdc045da	-0.09388323
23	0x3d2465d9	0.040136192
24	0x3d8e4711	0.069471486
25	0x3d787fa5	0.060668606
26	0x3df52306	0.11969571
27	0x3d509921	0.050927285
28	0x3dc2d381	0.095129974
29	0xbb6f677f	-0.0036530194
30	0xbdf9dd3e	-0.12200402
31	0x3dea641e	0.11444877
32	0x3ddd99f2	0.10820378
33	0xbda2db13	-0.07951941
34	0x3dc593f0	0.096473575
35	0xbd82270c	-0.06355104
36	0x3dae851d	0.08521483
37	0x3ce6c8e5	0.028171966
38	0x3d6c7dd3	0.057737183
39	0xbbf6f861	-0.0075369333
40	0xbd2abc6f	-0.04168361
41	0x3c5f2ee0	0.013622016
42	0x3ae44fb2	0.0017418771
43	0xbd08f9de	-0.033441417
44	0xbd057f65	-0.032592196
45	0x3c5762cd	0.013146115
46	0x3d312746	0.043250345
47	0xbddd1bc2	-0.1079631
48	0xbbc8e6c4	-0.006131025
49	0xbe024236	-0.1272057
50	0x3dce1e1b	0.10064336
51	0xbcb33c83	-0.02187944
52	0x3d86c336	0.06580202
53	0xbd634fac	-0.055495903
54	0x3cdddf47	0.027084006
55	0x3c6a21f0	0.014290318
56	0xbbcbc6c0	-0.006218761
57	0x3d486b32	0.048930354
58	0x3e8207d7	0.25396606
59	0x3c472967	0.012155867
60	0xbdcc8db7	-0.099879675
61	0xbd24b5b7	-0.04021236
62	0x3db44388	0.08801943
63	0x3ed4b158	0.41541553
64	0xbecabc0c	-0.39596593
65	0x3e5a3d86	0.21312532
66	0xbe70d75a	-0.2351965
67	0x3f47132b	0.77763623
68	0xbf27c3ac	-0.65532947
69	0xbcbe7c1d	-0.023252541
70	0xbdc85ee7	-0.09783726
71	0xbda7319e	-0.081637606
72	0x3daf4315	0.08557717
73	0x3d08856e	0.033330373
74	0xbd8dbbee	-0.0692061
75	0x3d7bb9a7	0.06145635
76	0xbd69e105	-0.05709936
77	0x3e0934b8	0.13399017
78	0xbcdb6b51	-0.02678457
79	0xbc6d0384	-0.01446617
80	0x3de1e670	0.110302806
81	0xbd6c4f83	-0.057693016
82	0x3d914b88	0.070944846
83	0xbd80cd0c	-0.062891096
84	0xbde7ee5b	-0.113247596
85	0xbb5eff96	-0.0034026853
86	0x3d23c989	0.03998712
87	0x3d464e78	0.048414677
88	0xbd6d9a4e	-0.058008485
89	0x3d099f4a	0.033599176
90	0x3df553b0	0.11978853
91	0xbd96e711	-0.07368291
92	0x3c255806	0.010091787
93	0x3d4727ee	0.048622064
94	0x3cc98b16	0.024602454
95	0x3d993dd5	0.07482497
96	0x3cc09dbc	0.023512714
97	0x3d6f8786	0.058478855
98	0x3d9e9532	0.077433005
99	0x3d8f4108	0.069948256
100	0xbc76296e	-0.015024526
101	0x3df3e28e	0.11908446
102	0xbdcaaca6	-0.09896211
103	0x3dabcf57	0.08389156
104	0x3dc44e14	0.09585205
105	0xbdef5cba	-0.11687608
106	0x3c23dc42	0.010001244
107	0xbdd4c602	-0.103893295
108	0x3db2b599	0.08726043
109	0xbca3ff33	-0.02001915
110	0xbd6067c6	-0.054786466
111	0xbd5450f5	-0.05183502
112	0xbd519b3f	-0.051173445
113	0xbd87dec3	-0.06634285
114	0x3df8ff16	0.12158029
115	0x3dc9e7d8	0.09858674
116	0xbf976693	-1.1828178
117	0xbce87b9a	-0.02837925
118	0xbdfd03a3	-0.12354209
119	0xbdc47e1a	-0.095943645
120	0x3c0fec82	0.008784415
121	0x3ec43478	0.3832128
122	0xbd74b7af	-0.059745487
123	0x3ec15f72	0.37768131
124	0xbfdba012	-1.7158225
125	0x3f79ecb9	0.97626835
126	0x3f0f0d85	0.55880004
127	0xbdefe69a	-0.11713906
128	0xbda8f6a8	-0.08250171
129	0x3db5d0ef	0.088777415
130	0x3d9a798f	0.07542717
131	0xbcd3df78	-0.025863394
132	0xbda24524	-0.07923344
133	0x3e003eaf	0.12523912
134	0x3ea06f07	0.31334707
135	0xbf60983c	-0.8773229
136	0xbdfcd13f	-0.12344598
137	0xbe15158e	-0.14559004
138	0x3dc7f08c	0.097626776
139	0x3df39fa0	0.118956804
140	0xb9e330c9	-0.00043333162
141	0x3d88ea35	0.066852964
142	0xbde1de19	-0.1102869
143	0x3cb6d988	0.022320524
144	0x3ca3d667	0.019999696
145	0xb9eb0d24	-0.00044832483
146	0xbd1dde27	-0.03854194
147	0x3cd8183d	0.026378745
148	0x3c6973de	0.014248816
149	0x3b8ae5a7	0.0042388025
150	0xbdb0d29d	-0.08633921
151	0x3dc782c1	0.09741736
152	0xbd3fbcae	-0.0468108
153	0xbd27adf1	-0.040937368
154	0x3b86b467	0.004110861
155	0x3d8986e7	0.06715184
156	0x3d1d5205	0.038408298
157	0x3da4eb36	0.080526754
158	0x3de53493	0.11191668
159	0xbe232cb3	-0.1593502
160	0xbcea8942	-0.028629903
161	0x3c83bace	0.016080286
162	0xbde7a3e4	-0.113105565
163	0x3dac689d	0.08418391
164	0x3def5778	0.11686605
165	0xbd9a88fd	-0.0754566
166	0xbdf13b86	-0.11778931
167	0xbe0c7543	-0.13716607
168	0xbd97cb79	-0.07411856
169	0x3da6b287	0.0813952
170	0xbc2309c5	-0.00995106
171	0xbdeb5f7d	-0.11492822
172	0x3e0638cc	0.13107604
173	0xbe1b7055	-0.1517957
174	0x3e75cbe3	0.24003558
175	0xbda4aad7	-0.080403976
176	0xbda1dc84	-0.07903388
177	0xbcaca71e	-0.021075781
178	0xbd80845f	-0.06275248
179	0xbea28409	-0.3174136
180	0xbf898d73	-1.0746292
181	0xbe5101d8	-0.2041086
182	0x3fbb37fb	1.4626459
183	0xbf63164e	-0.8870591
184	0xbe94210a	-0.28931457
185	0x3d826624	0.06367138
186	0xbc0ce460	-0.008599371
187	0xbd46a687	-0.048498657
188	0xbd8b2cbe	-0.06795643
189	0xbb384d40	-0.0028122216
190	0x3cab10f9	0.020882117
191	0xbd1226c5	-0.035681505
192	0xbdcab2bd	-0.09897373
193	0x3f0e5825	0.5560325
194	0x3d245e58	0.040129036
195	0x3da4ef12	0.080534115
196	0x3df9f0de	0.12204145
197	0xbb769277	-0.003762392
198	0x3df2aa75	0.11848918
199	0x3d87587f	0.06608676
200	0xbd81646b	-0.06317981
201	0xbd1ab376	-0.037768804
202	0xbc116a89	-0.008875498
203	0x3da600ba	0.08105607
204	0xbd1612e0	-0.036639094
205	0xbd42e1ca	-0.04757861
206	0xbca37459	-0.01995294
207	0xbd5ec95a	-0.054391243
208	0xbd5972a3	-0.05308784
209	0x3c541253	0.012943822
210	0xbdfae533	-0.122507475
211	0xbdcb1ae7	-0.099172406
212	0xbd2423a3	-0.04007305
213	0xbd7b6ea9	-0.06138483
214	0x3dbb1204	0.091342956
215	0x3d1ae17f	0.037812706
216	0xbd017b58	-0.03161177
217	0xbdbfe284	-0.09369376
218	0x3d34e027	0.04415908
219	0xbde8158a	-0.11332233
220	0x3dd12c3e	0.10213517
221	0xbb1632b1	-0.0022918398
222	0xbd46685c	-0.04843937
223	0x3c70da1c	0.014700439
224	0xbccc9ca1	-0.02497703
225	0xbd8fc309	-0.07019622
226	0xbd1db0bc	-0.038498625
227	0xbdd1cdbd	-0.102443196
228	0xbdb044cd	-0.08606873
229	0xbd6d84f2	-0.057988115
230	0x3dea7e19	0.114498325
231	0x3df498c6	0.11943202
232	0xbe647e19	-0.22313727
233	0xbdf36695	-0.118848
234	0xbb56dc65	-0.0032785174
235	0x3da6e3d7	0.08148926
236	0xbd5ff258	-0.054674476
237	0xbd12b84d	-0.035820294
238	0x400378e7	2.0542543
239	0xbd217d1b	-0.03942595
240	0xbe8034d9	-0.2504032
241	0xbd1c285e	-0.038124435
242	0x3ebc5d26	0.36789817
243	0xbd64b73a	-0.0558388
244	0xbde77a56	-0.113026306
245	0x3dcee326	0.10101919
246	0x3d3741bd	0.044740427
247	0x3cca6eb9	0.024711
248	0xbdd50401	-0.10401154
249	0x3d59f587	0.05321267
250	0xbd8ee485	-0.069771804
251	0xbe11936f	-0.14216398
252	0x3d9d863c	0.07691619
253	0x3d1470e9	0.036240492
254	0xbd23964e	-0.039938264
255	0x3bdddbc1	0.0067705815

linear.0.bias f4 [10]
0	0xbd806e73	-0.062710665
1	0x3d8e02da	0.06934138
2	0xbd9891a1	-0.074496515
3	0xbdeeb56d	-0.11655698
4	0xbdc796f9	-0.097455926
5	0xbde35818	-0.11100787
6	0x3d89497c	0.06703469
7	0x3c9ff6ee	0.019526925
8	0xbc83db16	-0.01609568
9	0xbd76c892	-0.060249873

linear.1.weight f4 [10, 10]
0	0xbea79308	-0.32729363
1	0x3de4f250	0.1117903
2	0x3da30c70	0.07961357
3	0xbde3fec5	-0.11132578
4	0xbf16caa8	-0.5890298
5	0xbe949b21	-0.29024604
6	0xbda2ad32	-0.07943191
7	0xbde4027c	-0.11133286
8	0x3e25665c	0.16152328
9	0x3e7b3ad5	0.24534161
10	0xbe2f733d	-0.17133804
11	0x3c678bee	0.014132483
12	0xbc446c7a	-0.011988753
13	0xbc26c4c6	-0.01017875
14	0xbed87dcb	-0.42283472
15	0xbdd840d7	-0.10559242
16	0x3e5cd6af	0.2156627
17	0x3eaba027	0.33520624
18	0xbde50af7	-0.11183732
19	0x3e01dfd9	0.12683047
20	0x3d4493e1	0.04799259
21	0xbdf27c04	-0.1184006
22	0x3f2e0423	0.6797506
23	0x3de9c5ab	0.11414655
24	0x3d6fb2db	0.05852018
25	0xbe95cd14	-0.29258025
26	0xbe67e50c	-0.22645968
27	0xbf4494cb	-0.7678954
28	0xbe0925d9	-0.13393344
29	0xbe43270e	-0.19057867
30	0xbe982d38	-0.29722
31	0xbe44391c	-0.1916241
32	0x3ea357fc	0.31903064
33	0x3ec34b1c	0.3814324
34	0xbf89f662	-1.0778315
35	0x3dbac86c	0.09120259
36	0x3da0754e	0.07834874
37	0xbf01adf7	-0.50656074
38	0x3d9ad8fb	0.07560917
39	0x3d80b0ce	0.06283723
40	0x3cf3d4d7	0.029764576
41	0x3c81535f	0.015786825
42	0x3e9ff565	0.3124191
43	0xbeb60105	-0.35547653
44	0xbf25ca4b	-0.647618
45	0xbdf6caf5	-0.1205043
46	0x3d9bb101	0.0760212
47	0x3da11622	0.078655496
48	0x3e4bade3	0.19890551
49	0x3e96f3a5	0.2948276
50	0x3f8c5910	1.096468
51	0xbefa1e0c	-0.4885105
52	0x3f15808a	0.5839926
53	0xbede505f	-0.43420693
54	0xbe94fd6b	-0.29099593
55	0x3e040801	0.12893678
56	0xbe0073e1	-0.12544204
57	0x3f0d88e7	0.5528702
58	0xbf1a40c0	-0.6025505
59	0x3e391965	0.18076093
60	0x3e86f9eb	0.26362547
61	0xbe3d3cea	-0.18480268
62	0xbc3e4f46	-0.01161558
63	0xbd1c58af	-0.038170513
64	0xbe9f1775	-0.31072584
65	0xbe384af8	-0.17997348
66	0xbd1cf2e9	-0.038317595
67	0xbe8f3c04	-0.27975476
68	0xbe95de4a	-0.29271156
69	0xbe85f683	-0.26164636
70	0x3ed495a4	0.41520417
71	0xbe14e591	-0.14540698
72	0x3e567291	0.20942141
73	0xbeaeb52f	-0.34122607
74	0xbeb18ab4	-0.34676135
75	0x3e8828be	0.26593584
76	0x3e8e0222	0.27736002
77	0xbf468397	-0.7754454
78	0xbdf8caa5	-0.121480264
79	0x3e3d3125	0.18475778
80	0x3f1768d3	0.59144324
81	0x3f55e930	0.8355894
82	0x3ec66ba1	0.3875399
83	0xbe5a9186	-0.21344575
84	0xbecb09ff	-0.39656064
85	0xbd30d93d	-0.043175925
86	0xbed5cb4c	-0.41756666
87	0x3f2417a7	0.6409859
88	0xbeb87f9b	-0.36034855
89	0xbd3292cc	-0.043597028
90	0x3ec87feb	0.39160094
91	0x3f43fd0b	0.7655799
92	0xbea1aa84	-0.31575406
93	0xbe7753a4	-0.24153
94	0xbeb79d8c	-0.35862386
95	0x3e763b1a	0.24045983
96	0xbe31fa8c	-0.17380732
97	0xbd2383b8	-0.03992054
98	0xbe4ffaec	-0.20310563
99	0xbe37bd04	-0.17943197

linear.1.bias f4 [10]
0	0xbccb7519	-0.02483611
1	0x3dfd5e71	0.12371529
2	0xbe946572	-0.28983647
3	0x3c3cbff1	0.011520372
4	0xbd4beee5	-0.049788374
5	0xbe0f2992	-0.13980702
6	0xbe641423	-0.22273307
7	0xbe7ec657	-0.24880348
8	0x3e54730a	0.20747009
9	0xbd6f5204	-0.058427826

linear.2.weight f4 [10, 10]
0	0xbe2871b6	-0.16449627
1	0xbd8bbcae	-0.06823097
2	0xbf022f5a	-0.508535
3	0xbe868d5b	-0.2627972
4	0x3ea92ae9	0.3304055
5	0x3da80d8b	0.08205708
6	0xbe4ded2f	-0.2011001
7	0xbe79c0b0	-0.2438991
8	0x3ea0b14a	0.3138526
9	0x3f097349	0.53691536
10	0x3e3462fc	0.17615885
11	0xbc3fe454	-0.0117121525
12	0xbec05180	-0.3756218
13	0x3dbcd88a	0.09220989
14	0x3d88dd86	0.06682877
15	0xbe9d2256	-0.3069026
16	0x3dd283a2	0.10279013
17	0x3d84dd10	0.06487477
18	0x3d7adad2	0.06124384
19	0xbdebf595	-0.115214504
20	0x3d93371f	0.07188248
21	0x3d4e94ca	0.050434865
22	0xbf073afc	-0.5282438
23	0xbe1d7765	-0.15377577
24	0xbe09f7fc	-0.13473505
25	0x3d5b75a8	0.053579003
26	0xbe226326	-0.15858135
27	0xbf1ddcde	-0.6166514
28	0x3edcbf28	0.4311459
29	0x3f2eb33f	0.6824226
30	0xbcc247e6	-0.023715924
31	0xbee002f1	-0.43752244
32	0x3d94947e	0.07254885
33	0xbec2b227	-0.38026544
34	0xbeaf355a	-0.34220392
35	0xbdfeee93	-0.12447848
36	0xbe08f5ab	-0.13374965
37	0x3ca2c2b1	0.019868227
38	0x3ea9d7c0	0.33172417
39	0xbde06256	-0.10956256
40	0x3e1b4ca2	0.15165952
41	0xbe6b8137	-0.2299851
42	0xbea9339b	-0.33047184
43	0xbe8cac1f	-0.27475068
44	0xbda8a948	-0.08235413
45	0xbe3a6109	-0.18201078
46	0xbe8a7016	-0.2703864
47	0x3da50afc	0.08058736
48	0xbcfc62b3	-0.030808782
49	0xbe88d72d	-0.26726666
50	0x3ebd175a	0.36931878
51	0xbdd317d8	-0.10307282
52	0xbe015a7b	-0.12632172
53	0x3d91e1fc	0.07123181
54	0xbce88732	-0.028384779
55	0xbec37bc6	-0.3818037
56	0x3e4882c1	0.19581129
57	0xbe91a531	-0.28446344
58	0xbe31be6a	-0.17357793
59	0xbbfeac30	-0.007771991
60	0x3e27f4e6	0.16402015
61	0xbe5224db	-0.20521872
62	0x3e9a5fb5	0.30151144
63	0xbe989833	-0.2980362
64	0x3e36b254	0.17841464
65	0xbddfbfee	-0.109252796
66	0x3e041d5b	0.12901823
67	0x3cce8111	0.025208028
68	0xbf12c1ff	-0.57327265
69	0x3e0b2569	0.1358849
70	0xbe65af05	-0.22430046
71	0x3e9a8433	0.30178985
72	0xbe1b997c	-0.15195268
73	0xbe9a3390	-0.30117464
74	0x3e88c8ab	0.26715598
75	0xbe81ab54	-0.25326025
76	0x3ca603a4	0.020265408
77	0xbda27bd1	-0.07933772
78	0xbe1fe928	-0.15616286
79	0xbd6ada7c	-0.05733727
80	0x3e64744e	0.22309992
81	0x3e776012	0.24157742
82	0x3e085cb7	0.13316618
83	0xbf204ba0	-0.62615395
84	0xbe60b4f3	-0.21944027
85	0x3f02736a	0.5095736
86	0x3c372cfe	0.011180161
87	0x3d74d5ca	0.059774198
88	0x3de91d61	0.11382557
89	0x3c7e68db	0.015527929
90	0x3e183458	0.14863718
91	0xbe91d3ac	-0.28481805
92	0xbe5f2e8e	-0.21795103
93	0xbdc461c9	-0.095889635
94	0x3e508d3f	0.20366381
95	0xbe9668fb	-0.2937697
96	0x3e8edde3	0.2790366
97	0xbebd1853	-0.3693262
98	0x3ec1a16d	0.3781847
99	0x3eee7c11	0.4657903

linear.2.bias f4 [10]
0	0xbcca7e45	-0.024718413
1	0x3db14c8b	0.086571775
2	0x3e92125b	0.2852963
3	0x3d5ebcd5	0.054379303
4	0x3e895e64	0.26829827
5	0xbd9119ed	-0.07085023
6	0x3dfc9b08	0.12334257
7	0x3e66a633	0.22524337
8	0x3cfb0e6d	0.030646527
9	0xbd7d6e3d	-0.06187271

linear.3.weight f4 [10, 10]
0	0xbe9cc0d8	-0.30615878
1	0x3e5ceaab	0.21573894
2	0xbdc85fb4	-0.09783879
3	0xbcb1bdda	-0.021696974
4	0xbe86efc2	-0.26354796
5	0x3d51d17b	0.051225167
6	0xbe5f524b	-0.21808736
7	0x3d870c25	0.06594113
8	0x3e46793f	0.19382189
9	0xbe002ce3	-0.12517123
10	0xbcd1d3c8	-0.02561368
11	0xbe24a976	-0.16080269
12	0x3dd19d5b	0.10235091
13	0x3e7151c6	0.2356635
14	0xbe55bfb0	-0.20873904
15	0x3e3c1eb4	0.18371087
16	0xbf10bdc8	-0.56539583
17	0xbee3b1d7	-0.4447162
18	0x3e05b0c0	0.13055706
19	0xbeaf981e	-0.34295744
20	0x3ecb4b08	0.39705682
21	0x3e5a2188	0.21301854
22	0x3ef0d546	0.47037715
23	0x3dd84aca	0.1056114
24	0x3df13ebc	0.11779544
25	0xbd856fca	-0.06515463
26	0xba1503ef	-0.0005684485
27	0xbd9de7f3	-0.077102564
28	0xbe69dc99	-0.22838058
29	0x3e00bdb1	0.12572362
30	0xbe06eae0	-0.13175535
31	0x3df223ce	0.118232355
32	0x3de464a1	0.11152006
33	0xbe9971c2	-0.29969603
34	0x3d4ac972	0.04950852
35	0x3e9a246b	0.3010591
36	0x3db3b170	0.08774078
37	0xbe0bfd6a	-0.13670889
38	0xbe529e83	-0.2056828
39	0x3cfcc85b	0.030857256
40	0xbe8fe3eb	-0.28103575
41	0xbddf1c0a	-0.1089402
42	0xbd0e8075	-0.034790475
43	0xbe82c280	-0.25539017
44	0x3e7e5509	0.24837126
45	0xbe41a4da	-0.18910542
46	0x3e098949	0.13431276
47	0x3de93428	0.11386901
48	0x3daae8ad	0.08345161
49	0xbe8d4dff	-0.2759857
50	0x3d88ad26	0.066736504
51	0xbd387de9	-0.045041952
52	0x3ea0a014	0.3137213
53	0xbe2ca934	-0.16861421
54	0x3e01ef94	0.12689048
55	0xbe63ef80	-0.22259331
56	0xbe3ce87f	-0.18448065
57	0xbeb76264	-0.35817254
58	0xbe8eb0fa	-0.27869397
59	0x3eacf7de	0.33782858
60	0x3f017e52	0.50583375
61	0xbe0f007b	-0.13965027
62	0x3f27838b	0.65435094
63	0xbe29750c	-0.16548556
64	0x3de385bd	0.11109493
65	0xbe91a2bd	-0.28444472
66	0x3d2e47c1	0.0425489
67	0xbf0eb68f	-0.5574731
68	0xbdc6bfb3	-0.097045325
69	0x3f0a2f3f	0.5397834
70	0x3cfbf100	0.030754566
71	0x3cffc2a0	0.031220734
72	0x3da5217b	0.080630265
73	0xbe8fa363	-0.28054342
74	0x3e253e33	0.16137008
75	0xbeb123bb	-0.34597573
76	0xbe255bc7	-0.16148292
77	0x3e4d95d9	0.20076694
78	0xbcafc56d	-0.021456445
79	0xbe1647fa	-0.14675894
80	0xbebd5b8d	-0.3698391
81	0xbcfdc276	-0.030976515
82	0xbe4b1f3f	-0.19836138
83	0x3e02715c	0.12738556
84	0x3e852900	0.26007843
85	0x3da45f4a	0.080259874
86	0xbe58680d	-0.21133442
87	0x3d2053b8	0.03914234
88	0xbdbce8a5	-0.09224061
89	0xbe9be6b7	-0.3044946
90	0x3e6ca0c1	0.23108198
91	0xbe0d3601	-0.13790132
92	0xbddb2906	-0.10701184
93	0xbc087d25	-0.008330618
94	0xbead9f61	-0.3391066
95	0x3e178592	0.14797047
96	0x3dc680ac	0.09692511
97	0xbe06cec8	-0.13164818
98	0x3ea41726	0.3204891
99	0xbd4c241f	-0.049839135

linear.3.bias f4 [10]
0	0xbe828748	-0.25493836
1	0x3e244d2f	0.16045068
2	0xbe6ad80d	-0.2293398
3	0xbe0a89ea	-0.13529173
4	0xbbf9524f	-0.007608689
5	0xbe72ab17	-0.23698078
6	0xbe70237f	-0.2345104
7	0x3e4e1c74	0.20128042
8	0xbea1e8bd	-0.31622878
9	0x3e1edbc7	0.15513526

linear.4.weight f4 [10, 10]
0	0xbda06b65	-0.07832984
1	0xbe06bafd	-0.13157268
2	0xbe15098f	-0.14554428
3	0xbd264944	-0.040597215
4	0xbde3cbb0	-0.11122835
5	0xbe8d0586	-0.27543277
6	0xbdb05b90	-0.08611214
7	0xbc54c07f	-0.012985348
8	0x3c366bb0	0.011134073
9	0x3e18876b	0.14895408
10	0x3bf45935	0.0074569234
11	0xbed3e719	-0.4138725
12	0xbe7674fb	-0.24068062
13	0xbdeeadb3	-0.11654224
14	0x3e1060a6	0.14099368
15	0x3e8c3100	0.27381134
16	0x3d042fc4	0.032272115
17	0x3e00dea7	0.12584935
18	0x3dc5a96f	0.096514575
19	0x3c3bf4a9	0.011471906
20	0x3d896229	0.06708176
21	0x3e28d0d5	0.16485913
22	0x3e458fd7	0.19293152
23	0xbe94601e	-0.28979582
24	0x3d6e2d6c	0.058148786
25	0x3de000f6	0.10937683
26	0x3f206fea	0.6267077
27	0xbc533bd4	-0.012892682
28	0x3df3f7e9	0.119125195
29	0x3e8ad0ee	0.27112526
30	0xbe86d101	-0.26331332
31	0xbe1f865a	-0.15578595
32	0x3e823788	0.25432992
33	0x3c675254	0.01411875
34	0x3df49844	0.11943105
35	0x3ea9866a	0.33110362
36	0xbe2ae750	-0.16689801
37	0x3e0195a7	0.12654744
38	0xbe3a2f3a	-0.18182078
39	0xbdfe9332	-0.12430419
40	0x3dbc2c9a	0.091881946
41	0x3e9fc508	0.3120501
42	0xbe5bf410	-0.21479821
43	0xbe829da8	-0.25510907
44	0x3e4081b9	0.18799485
45	0xbbcfac3d	-0.006337671
46	0x3ceb84ce	0.02874985
47	0xbe8d0272	-0.27540928
48	0xbd12438e	-0.035708956
49	0x3e0399e4	0.12851673
50	0x3dca5bb5	0.09880773
51	0xbec462c8	-0.38356614
52	0x3e8a6f9b	0.27038273
53	0x38983a37	7.258768e-05
54	0xbd2dfd52	-0.042477913
55	0xbd06bd51	-0.03289539
56	0x3f1431dc	0.5788858
57	0xbd61423b	-0.054994803
58	0xbe93abed	-0.28842106
59	0xbe66f5ad	-0.22554655
60	0xbc18a4ab	-0.009316604
61	0xbd6973d9	-0.056995247
62	0xbd0dc385	-0.03461029
63	0x3deeeb77	0.11666005
64	0xbe781bd6	-0.24229369
65	0x3eb9767c	0.3622321
66	0x3ed98c27	0.4248974
67	0x3de1df08	0.11028868
68	0xbe48017d	-0.19531818
69	0xbea507e6	-0.3223259
70	0xbe340eb4	-0.17583734
71	0xbe977df7	-0.2958829
72	0x3e10e4f1	0.14149834
73	0xbe2057c7	-0.15658484
74	0x3d9be036	0.07611124
75	0x3e378520	0.17921877
76	0x3e98d663	0.29851064
77	0x3dff483a	0.12464948
78	0xbea5e516	-0.3240134
79	0xbeb3d482	-0.35123068
80	0x3dd1aea4	0.10238388
81	0xbde43a8d	-0.1114398
82	0xbe5b5c68	-0.21421969
83	0x3d765205	0.060136814
84	0x3dac3495	0.08408467
85	0xbe8b15e3	-0.27165136
86	0x3ea67f33	0.3251892
87	0xbe90becb	-0.28270563
88	0xbe14717f	-0.1449642
89	0xbd9f7924	-0.077867776
90	0xbdb82244	-0.08990911
91	0xbe0c5ef4	-0.13708097
92	0xbbf13191	-0.007360645
93	0xbe52b943	-0.20578484
94	0x3c9ca1e8	0.019120172
95	0x3ee8f74e	0.45501179
96	0x3e9950c0	0.2994442
97	0x3e534b27	0.20634137
98	0xbe8acf10	-0.271111
99	0xbea65d8c	-0.32493246

linear.4.bias f4 [10]
0	0xbe9c5a6d	-0.3053774
1	0xbcedcf87	-0.02902962
2	0x3e988e8b	0.29796252
3	0x3e78eae7	0.24308358
4	0x3db153dc	0.08658573
5	0xbcbe7759	-0.023250269
6	0xbd618194	-0.055055216
7	0x3e656c3b	0.22404568
8	0xbe35794a	-0.1772205
9	0xbe7b539c	-0.24543613

linear.5.weight f4 [10, 10]
0	0x3b571fc3	0.0032825328
1	0x3e0a72d4	0.13520366
2	0xbe615d2f	-0.22008203
3	0xbc5e4df9	-0.013568395
4	0x3cacdf5b	0.021102598
5	0x3e2b9c60	0.16758871
6	0x3d81342d	0.0630878
7	0xbc4a60ee	-0.012352211
8	0xbe270dd6	-0.16313872
9	0x3d748cae	0.059704475
10	0x3e83bd31	0.2573028
11	0xbbd26a07	-0.006421331
12	0xbe8cad23	-0.27475843
13	0x3dad5693	0.08463778
14	0xbe446181	-0.1917782
15	0xbd6213c0	-0.055194616
16	0x3e9190b9	0.28430727
17	0x3d2cbaa5	0.042170186
18	0x3d0647aa	0.032783188
19	0xbea47a75	-0.32124677
20	0xbe9efac9	-0.3105071
21	0xbdf1b1a5	-0.11801461
22	0xbe0a36e2	-0.13497499
23	0xbdc51453	-0.09623017
24	0xbe6f0434	-0.23341447
25	0xbe02d05d	-0.12774797
26	0x3e946526	0.2898342
27	0xbda43724	-0.0801833
28	0xbe917093	-0.284062
29	0xbe902cbb	-0.28159127
30	0x3da829e1	0.08211113
31	0xbe5388bb	-0.20657627
32	0x3ea30c55	0.31845346
33	0x3dd58f9a	0.104277804
34	0x3e088b02	0.13334277
35	0x3f19b4e2	0.6004163
36	0x3edaea1b	0.42756733
37	0x3ec13a57	0.37739822
38	0x3da37e8b	0.079831205
39	0x3ed07dd2	0.40720993
40	0x3e49fc08	0.19725049
41	0x3e94bc84	0.29050076
42	0xbd4e10cc	-0.050308987
43	0xbe662ecd	-0.2247879
44	0x3e822052	0.25415283
45	0xbdbbb016	-0.09164445
46	0x3d534a0a	0.05158428
47	0xbcf73695	-0.030177394
48	0xbe926661	-0.28593734
49	0x3e37d1fb	0.17951195
50	0x3d53dd5d	0.05172478
51	0xbdb008fa	-0.08595462
52	0xbca4862e	-0.020083513
53	0x3e4746b1	0.1946056
54	0x3e0d8bf9	0.13822927
55	0xbd4d048d	-0.050053168
56	0xbe927004	-0.28601086
57	0x3e91c4f2	0.2847057
58	0x3d85147a	0.06498046
59	0x3d77aa57	0.060465183
60	0xbe09ed19	-0.13469352
61	0x3e168e4f	0.14702724
62	0xbe52afb2	-0.20574835
63	0x3cc676b5	0.024226526
64	0xbe4e270f	-0.20132087
65	0x3debfb9d	0.11522601
66	0x3d9f4846	0.07777457
67	0xbe8d299f	-0.27570817
68	0xbe12e814	-0.14346343
69	0xbd08945e	-0.03334462
70	0x3e861ebb	0.2619532
71	0xbe6bc482	-0.2302418
72	0xbd5689aa	-0.05237738
73	0x3e0f041d	0.13966413
74	0xbe13624e	-0.14392969
75	0xbe52c514	-0.20582992
76	0xbe901a40	-0.28145027
77	0xbd9e80e2	-0.07739426
78	0xbd4cbd5d	-0.04998528
79	0x3e194cab	0.14970653
80	0xbe84b47d	-0.25918952
81	0x3e6c3ac3	0.23069291
82	0x3e44fbd6	0.19236693
83	0x3e367c96	0.17820963
84	0xbc2e3eb9	-0.010635071
85	0xbc861e7a	-0.016371954
86	0x3e1824a8	0.14857733
87	0x3df886a6	0.12135057
88	0xbe3d94b5	-0.18513758
89	0x3dffed1f	0.12496399
90	0xbe6885de	-0.22707316
91	0x3e06cbb9	0.13163652
92	0xbe8912ae	-0.26772064
93	0xbe954cd0	-0.29160166
94	0xbb90842f	-0.0044102888
95	0x3df4eaae	0.11958824
96	0xbe61937a	-0.22028914
97	0xbe0d54ee	-0.1380193
98	0xbe851569	-0.25992897
99	0xbe87e69c	-0.26543128

linear.5.bias f4 [10]
0	0x3e9f39da	0.31098825
1	0xbe7d869c	-0.2475838
2	0xbe769964	-0.24081951
3	0xbe50d3a8	-0.2039324
4	0xbdd66616	-0.1046869
5	0xbcfb33c8	-0.03066434
6	0x3d69401e	0.056945913
7	0x3e2aa422	0.16664174
8	0xbe46822b	-0.19385593
9	0x3e7c48b9	0.24637116

linear.6.weight f4 [10, 10]
0	0xbde1e7f6	-0.11030571
1	0x3e86b791	0.26311925
2	0xbe85ee4b	-0.26158366
3	0xbe96d722	-0.29461008
4	0x3e073281	0.1320286
5	0x3e15bb83	0.14622311
6	0xbda729cb	-0.08162268
7	0xbe2283e6	-0.15870628
8	0xbe226258	-0.15857828
9	0xbe8b54d4	-0.27213156
10	0xbdc3b6e7	-0.0955637
11	0xbe8dae9c	-0.2767228
12	0xbd2cb511	-0.042164866
13	0x3e946065	0.28979793
14	0xbced5e9a	-0.028975774
15	0xbc9490a0	-0.018135369
16	0xbe534465	-0.20631559
17	0x3d78bb13	0.060725283
18	0xbe6a9e06	-0.22911844
19	0xbcf7e600	-0.03026104
20	0xbe704ac5	-0.23466022
21	0xbe877d30	-0.26462698
22	0xbe28023f	-0.16407107
23	0xbe7bcd91	-0.24590136
24	0xbe5a62ea	-0.21326795
25	0x3dbef0ec	0.09323296
26	0x3e185f66	0.14880142
27	0xbe171562	-0.1475425
28	0xbc43c0c0	-0.011947811
29	0x3d1b3fd0	0.037902653
30	0xbe368553	-0.17824297
31	0xbcc02500	-0.023455143
32	0xbdff41d6	-0.12463729
33	0xbe04f361	-0.12983467
34	0xbbb9e18f	-0.0056726406
35	0xbba419b8	-0.0050079487
36	0xbd68c8e4	-0.05683221
37	0xbe670fe6	-0.22564659
38	0xbe83836e	-0.2568621
39	0x3e2a29e6	0.16617545
40	0x3e551fc7	0.20812903
41	0xbe50ecaf	-0.20402788
42	0xbd93de0e	-0.07220088
43	0xbdd73e2b	-0.105099045
44	0xbd90fe0f	-0.07079708
45	0x3e283cce	0.16429445
46	0x3e3e72ba	0.18598452
47	0xbdf63ad8	-0.12022942
48	0x3e193158	0.1496023
49	0xbcc59918	-0.024120852
50	0x3d1c8b4a	0.038218774
51	0xbdc40986	-0.09572129
52	0xbe69bada	-0.22825184
53	0x3e9c5479	0.30533198
54	0xbe3f2115	-0.18664964
55	0xbe18ae29	-0.14910187
56	0x3e0b4837	0.13601767
57	0xbe4d2a6f	-0.20035718
58	0xbe02171b	-0.12704127
59	0x3e9659b8	0.29365325
60	0x3c421812	0.011846559
61	0xbe5f4fc5	-0.21807773
62	0x3cb25d9e	0.021773156
63	0x3e21d20f	0.15802787
64	0x3e8b853c	0.27250087
65	0x3e0631e5	0.13104971
66	0xbd672b7b	-0.05643795
67	0xbe5ea93f	-0.2174425
68	0x3e8a0854	0.2695948
69	0xbe27dc4d	-0.16392632
70	0x3e74a29e	0.23890159
71	0xbe143344	-0.14472681
72	0x3e062718	0.1310085
73	0xbc625216	-0.013813516
74	0xbbbc920e	-0.0057547158
75	0xbe0dd3d3	-0.13850336
76	0xbe3ab9e5	-0.18234976
77	0xbe1d1b8f	-0.15342544
78	0xbd134005	-0.035949726
79	0x3d837836	0.06419413
80	0xbdb5f49c	-0.08884546
81	0x3e1332ac	0.14374799
82	0x3d05ed87	0.032697227
83	0x3e7b22b2	0.24524954
84	0xbecfe17c	-0.40601718
85	0xbe43ada1	-0.19109203
86	0xbdf7978f	-0.120894544
87	0xbe79e8dc	-0.24405235
88	0x3d38e91c	0.045144185
89	0x3e0affea	0.13574186
90	0xbe8dcd4c	-0.27695692
91	0x3e902057	0.28149673
92	0xbac13097	-0.0014739212
93	0xbe622e4f	-0.22087978
94	0xbd82f127	-0.063936524
95	0xbdd265af	-0.10273301
96	0x3c64eb1f	0.013972073
97	0xbe955f03	-0.2917405
98	0x3de749ce	0.11293374
99	0xbe9b7531	-0.30362847

linear.6.bias f4 [10]
0	0x3ea086e1	0.31352904
1	0x3e2db44a	0.16963306
2	0xbe8e8eae	-0.2784323
3	0x3da5ee22	0.08102061
4	0x3e04c41b	0.12965433
5	0x3e9e6ade	0.30940908
6	0xbe29b304	-0.16572195
7	0x3e7ddad1	0.24790503
8	0x3de06abe	0.109578595
9	0xbdf5e169	-0.12005884

linear.7.weight f4 [10, 10]
0	0x3d39ceb8	0.045363158
1	0x3db1807c	0.086670846
2	0x3da70d24	0.08156803
3	0x3d2200a0	0.039551377
4	0xbe6ca13e	-0.23108384
5	0xbdf98e6e	-0.121853694
6	0xbe5d1e34	-0.21593553
7	0x3e71221a	0.23548165
8	0xbdae903e	-0.08523606
9	0x3e03c4a4	0.12867981
10	0xbda382c7	-0.07983928
11	0xbe55daef	-0.20884298
12	0x3d6bfd88	0.057614833
13	0xbd9d3fee	-0.07678209
14	0x3e721993	0.23642568
15	0xbec160c7	-0.37769148
16	0x3dc7b771	0.097517855
17	0x3e2903e1	0.16505386
18	0xbe0d6ecf	-0.13811801
19	0xbdfc83ce	-0.12329827
20	0x3e9a7200	0.301651
21	0xbead9d3c	-0.33909023
22	0x3ea1e69f	0.31621262
23	0x3d18ed60	0.037335753
24	0xbc8ce51a	-0.017199088
25	0x3d212bf7	0.03934857
26	0x3d3fd2cc	0.04683189
27	0xba3f3b7b	-0.0007294935
28	0x3ddf0e89	0.10891444
29	0x3e65185f	0.22372578
30	0xbd4bf488	-0.04979375
31	0x3e25ecea	0.16203657
32	0x3e068e9a	0.13140336
33	0xbe5dbdee	-0.21654484
34	0x3ded6442	0.11591388
35	0xbe562a26	-0.20914516
36	0xbe1b6235	-0.15174182
37	0x3e07baa7	0.13254796
38	0xbdab0b3a	-0.08351751
39	0x3e28fd56	0.1650289
40	0xbe9735eb	-0.29533324
41	0xbd85f2d9	-0.0654046
42	0x3dc0e784	0.09419158
43	0x3e9e88a2	0.30963618
44	0xbe0391b4	-0.1284855
45	0x3e508ff7	0.20367418
46	0xbe057cbc	-0.13035864
47	0xbd8d4cba	-0.068994
48	0x3eb0f1f8	0.34559608
49	0xbe7590c2	-0.23981002
50	0x3e99d660	0.30046368
51	0x3e3f2fa3	0.18670516
52	0xbe5039e2	-0.2033458
53	0x3da74128	0.081667244
54	0xbe6c2bba	-0.23063555
55	0xbe0e1a78	-0.13877285
56	0xbdedc361	-0.11609531
57	0xbe3d6849	-0.18496813
58	0xbd92cca5	-0.07167939
59	0xbe817f54	-0.25292456
60	0xbe4acfb5	-0.19805796
61	0xbe027173	-0.1273859
62	0x3d94dd24	0.07268742
63	0xbe3d4e10	-0.1848681
64	0x3dde3f85	0.10851959
65	0x3e8a2514	0.26981413
66	0x3dc872c6	0.09787516
67	0xbdad4884	-0.08461097
68	0xbd4bd9bc	-0.049768195
69	0xbd8f4cd8	-0.06997079
70	0x3e0be913	0.1366313
71	0x3de95db2	0.11394824
72	0xbd186e00	-0.03721428
73	0xbdbaf4e1	-0.09128738
74	0xbdea9f55	-0.114561714
75	0x3cbe7e95	0.023253718
76	0x3de22b54	0.110434204
77	0xbd84e7bb	-0.064895116
78	0x3dda3333	0.10654297
79	0xbe8f9568	-0.28043675
80	0xbd81f683	-0.063458465
81	0xbe4623b4	-0.19349557
82	0xbe03b515	-0.12862046
83	0x3c6f1640	0.014592707
84	0x3e3d3333	0.18476562
85	0xbd3e77ad	-0.04650085
86	0xbe057e3b	-0.13036434
87	0xbe5f1e8a	-0.21788993
88	0xbe9380bb	-0.2880915
89	0xbd5edd54	-0.054410294
90	0xbea1fbe1	-0.3163748
91	0x3e199c0c	0.15000933
92	0x3cfb8d20	0.030706942
93	0x3e7df171	0.24799134
94	0xbe145ee7	-0.14489327
95	0x3c4187b2	0.011812137
96	0x3eaa84d0	0.33304453
97	0xbe79959a	-0.24373475
98	0x3da19990	0.07890618
99	0x3dd9e511	0.10639394

linear.7.bias f4 [10]
0	0xbe2ae1d5	-0.1668771
1	0xbe656b38	-0.22404182
2	0xbe034699	-0.128199
3	0x3d13b9b4	0.036065772
4	0x3e5c7c23	0.2153173
5	0xbe7afbe9	-0.24510159
6	0xbb3c647c	-0.0028746417
7	0x3de305f1	0.110851176
8	0xbdfd5b1d	-0.12370894
9	0x3e585d5e	0.21129367

linear.8.weight f4 [10, 10]
0	0xbe06d792	-0.13168171
1	0xbe46b5cf	-0.19405292
2	0xbe9f9a18	-0.31172252
3	0x3e617c86	0.22020158
4	0x3d9421f7	0.07233041
5	0xbdfeb139	-0.12436146
6	0x3da3a44e	0.07990323
7	0xbe8ebde5	-0.27879253
8	0xbe823548	-0.25431275
9	0xbd6866dc	-0.05673872
10	0xbe53453c	-0.2063188
11	0xbe87311e	-0.2640466
12	0xbe310c6f	-0.172899
13	0x3e44391e	0.19162413
14	0x3e6d93e4	0.23200947
15	0xbe7af5d0	-0.24507833
16	0x3bde9b87	0.0067934426
17	0x3d82b3ea	0.06381972
18	0xbe2290b3	-0.15875511
19	0x3e57469c	0.21023029
20	0xbe360611	-0.17775752
21	0xbe2c8a96	-0.16849741
22	0xbe9c91aa	-0.30579883
23	0x3e9e7443	0.30948076
24	0xbe765abb	-0.24058048
25	0x3e244eba	0.16045657
26	0xbe9b528c	-0.30336416
27	0x3e18bf84	0.14916807
28	0xbdd38889	-0.103287764
29	0xbe4e71e5	-0.20160635
30	0x3dc6b3f0	0.09702289
31	0xbd3ba538	-0.04581186
32	0x3e3575d6	0.17720732
33	0x3e801a58	0.250201
34	0xbe8beec0	-0.2733059
35	0x3d319afd	0.0433607
36	0xbe93cdab	-0.2886785
37	0xbe839486	-0.25699252
38	0xbe4d2080	-0.20031929
39	0x3e3b9770	0.18319488
40	0x3da9b6f4	0.08286849
41	0xbde2a7ce	-0.110671625
42	0xbe289bc7	-0.16465674
43	0x3e4bfacf	0.19919895
44	0x3e028bb1	0.127486
45	0x3e762c8e	0.24040434
46	0xbd0e3f96	-0.03472861
47	0x3d5d4587	0.054021385
48	0xbdea35af	-0.114360206
49	0x3e7f6b06	0.2494317
50	0xbca92420	-0.020647109
51	0x3ed74ee3	0.42052373
52	0x3cc40f24	0.023933
53	0xba77ddf1	-0.0009455374
54	0x3e89b88f	0.2689862
55	0x3dc5c0e8	0.096559346
56	0x3c5da943	0.013529125
57	0xbeab7153	-0.33484897
58	0x3d16dbaf	0.0368306
59	0xbd712673	-0.05887456
60	0x3ddb5b00	0.10710716
61	0x3ca42a2f	0.020039646
62	0x3e080739	0.13284005
63	0x3e419b5d	0.18906923
64	0xbe6635bd	-0.22481437
65	0xbd39296b	-0.045205515
66	0xbd39583f	-0.045250174
67	0xbe111a49	-0.14170183
68	0x3e5e8ad7	0.2173265
69	0x3c561428	0.013066329
70	0x3a6ce200	0.0009036362
71	0xbdedf5a5	-0.116191186
72	0xbe9b42f4	-0.3032452
73	0x3d9c721d	0.07638953
74	0x3d41e9a5	0.04734196
75	0xbdf242b0	-0.11829126
76	0x3eb947d8	0.36187625
77	0x3e348d6e	0.17632076
78	0x3e674e95	0.2258857
79	0x3d9703b6	0.07373755
80	0xbe197298	-0.1498512
81	0xbd3e3979	-0.04644153
82	0x3d7916b0	0.060812652
83	0x3d990a32	0.07472648
84	0xbe6a7c77	-0.22899042
85	0x3d98e599	0.07465667
86	0xbe15ec86	-0.14641008
87	0x3e5143f8	0.20436084
88	0xbd84379c	-0.06455919
89	0xbd4782b4	-0.048708633
90	0xbe3feab0	-0.1874187
91	0x3e2b0dd9	0.16704501
92	0xbea4ef79	-0.32213953
93	0xbdaca3f7	-0.08429711
94	0x3e964b2c	0.29354227
95	0xbe7f17f2	-0.24911478
96	0xbe891f32	-0.26781613
97	0xbd4775c8	-0.04869631
98	0x3de2eb57	0.11080044
99	0x3e4f785d	0.20260759

linear.8.bias f4 [10]
0	0x3ea732d3	0.32655963
1	0xbe869c80	-0.26291275
2	0x3e94319f	0.28944108
3	0xbe2109b7	-0.15726362
4	0x3cfd0282	0.030884985
5	0x3e8274a5	0.25479618
6	0x3e2ecfd7	0.17071472
7	0xbde2aee2	-0.110685125
8	0xbd42020e	-0.04736524
9	0xbe64deab	-0.22350566

linear.9.weight f4 [10, 10]
0	0x3e45858a	0.19289222
1	0x3dfcaa87	0.12337213
2	0x3e9aba68	0.30220342
3	0xbdb5812d	-0.08862529
4	0xbe5e1769	-0.21688618
5	0xbd7f20a6	-0.062286995
6	0x3d9568eb	0.07295402
7	0xbcfe35b9	-0.031031476
8	0xbda17088	-0.07882792
9	0xbd5c5414	-0.05379112
10	0x3e70130d	0.23444767
11	0x3dc88332	0.097906485
12	0x3e602746	0.21889982
13	0x3e81adf7	0.25328037
14	0xbd944b8e	-0.072409734
15	0x3d5f61b0	0.05453652
16	0x3e768e96	0.2407783
17	0x3df39259	0.11893148
18	0x3da01b2d	0.07817683
19	0x3e837bab	0.2568029
20	0xbe9f29c6	-0.31086558
21	0x3a506f56	0.00079511607
22	0xbea0a293	-0.31374034
23	0x3e60f616	0.21968874
24	0x3e22ef17	0.15911518
25	0x3c4e5ee0	0.012595862
26	0xbdb6cecf	-0.08926164
27	0xbde4c9fc	-0.11171338
28	0xbe9e2601	-0.3088837
29	0xbe1a8100	-0.15088272
30	0x3e360607	0.17775737
31	0x3d83f6dd	0.0644357
32	0xbc3120d2	-0.010811048
33	0xbe9f53f9	-0.31118754
34	0xbe3b2b2b	-0.18278186
35	0x3e741cf7	0.23839174
36	0x3e29832c	0.16553944
37	0x3d8188c5	0.06324915
38	0xbd8e7049	-0.069550104
39	0xbdcc7292	-0.0998279
40	0xbe0942c7	-0.1340438
41	0x3dce86d6	0.10084312
42	0x3e6e7084	0.23285109
43	0xbe22a675	-0.15883811
44	0xbe88fbfd	-0.26754752
45	0x3e9f0b0d	0.3106312
46	0xbd6f599d	-0.05843507
47	0xbe8a55ee	-0.27018684
48	0x3e8bbc9b	0.27292332
49	0xbd240016	-0.040039144
50	0xbe936e19	-0.28794935
51	0x3e450916	0.19241747
52	0x3e0be206	0.1366044
53	0xbdc12925	-0.09431676
54	0x3e90b94c	0.2826637
55	0xbea25b09	-0.3171008
56	0xbe376eb1	-0.17913319
57	0x3e3cdf4b	0.18444555
58	0x3d030420	0.031986356
59	0x3c31cced	0.010852081
60	0x3dcf13e0	0.10111213
61	0xbe02d152	-0.12775162
62	0x3e54cf32	0.20782164
63	0xbd8d89da	-0.06911059
64	0xbe8c1377	-0.273586
65	0xbe87f460	-0.2655363
66	0x3e588009	0.21142592
67	0x3e47ada9	0.1949984
68	0xbdfcaca6	-0.123376176
69	0xbe308733	-0.17239074
70	0xbe601fd3	-0.2188714
71	0xbe7b951d	-0.24568601
72	0xbe3da1ac	-0.18518704
73	0xbe9c2807	-0.30499288
74	0xbdf8dc1e	-0.12151359
75	0xbe4c67c9	-0.19961466
76	0x3e230e1c	0.15923351
77	0xbe0d312d	-0.1378829
78	0x3cefb971	0.02926323
79	0xbe9ceb5c	-0.30648315
80	0xbe14adbb	-0.14519398
81	0xbde3c70c	-0.111219496
82	0x3e8d93e5	0.27651897
83	0x3e83d07d	0.25745
84	0xbafa3ec2	-0.001909219
85	0xbe3ad208	-0.18244183
86	0xbdc0186c	-0.09379658
87	0xbe760f21	-0.24029209
88	0x3e8b79db	0.27241406
89	0xbe2548fe	-0.16141126
90	0xbdb840a4	-0.08996704
91	0xbdd3596d	-0.10319791
92	0x3e2b41d4	0.1672433
93	0xbcdfe1b3	-0.027329301
94	0xbe3e36d1	-0.18575598
95	0xbd51f5da	-0.051259853
96	0x3de33aa6	0.11095171
97	0xbe47bdb3	-0.19505958
98	0xbe89b004	-0.26892102
99	0x3e84f833	0.2597061

linear.9.bias f4 [10]
0	0x3e2e6c16	0.17033419
1	0xbc92fc30	-0.017942518
2	0xbe5b56c8	-0.21419823
3	0x3e3744f5	0.17897399
4	0x3d7d4f36	0.06184312
5	0x3e051d05	0.12999351
6	0xbe3d647a	-0.1849536
7	0x3e33df0a	0.17565551
8	0x3e645ac6	0.22300252
9	0x3e892d25	0.26792255

linear.10.weight f4 [10, 10]
0	0x3e8fb199	0.28065184
1	0xbe2a8750	-0.1665318
2	0x3db720ab	0.08941778
3	0x3e3e24b5	0.1856869
4	0x3e0e0dc2	0.13872436
5	0xbd8370d4	-0.06418005
6	0x3d36f026	0.044662617
7	0x3e41bcfa	0.18919745
8	0xbc38a1e0	-0.011269063
9	0xbe68affb	-0.22723381
10	0xbe02ee01	-0.12786104
11	0x3e5c3306	0.21503839
12	0xbdab283c	-0.083572835
13	0xbe307c05	-0.1723481
14	0x3de8007b	0.11328217
15	0x3e5e989c	0.21737903
16	0x3e3f1e0c	0.18663806
17	0xbd4f6187	-0.05063012
18	0x3e8f75c1	0.28019527
19	0xbeab1806	-0.33416766
20	0x3e92ab0b	0.2864612
21	0x3e3cfbab	0.18455379
22	0x3e27f571	0.16402222
23	0xbe7b01bf	-0.24512385
24	0x3ce754f1	0.028238745
25	0xbe44fa43	-0.19236092
26	0x3e8dd10c	0.27698553
27	0x3de767e0	0.112991095
28	0xbe208491	-0.1567557
29	0x3d56b183	0.052415382
30	0x3d046408	0.03232196
31	0x3dae7dc7	0.08520084
32	0x3e69206d	0.22766276
33	0xbe9ec161	-0.3100691
34	0xbe5d66ed	-0.21621294
35	0xbe40820f	-0.18799613
36	0xbe970f50	-0.2950387
37	0xbe557776	-0.20846352
38	0xbe2e833f	-0.17042254
39	0xbe9542e9	-0.2915261
40	0xb7e54000	-2.732873e-05
41	0xbe9d7619	-0.30754164
42	0xbe867bcc	-0.26266325
43	0x3df82bac	0.12117705
44	0xbd557128	-0.052109867
45	0xbd555a38	-0.052087992
46	0x3d9d4420	0.076790094
47	0x3e775666	0.24154052
48	0xbe50b128	-0.2038008
49	0x3e3f3866	0.18673858
50	0x3e9a3d4c	0.3012489
51	0x3e393433	0.18086319
52	0xbde17e83	-0.11010458
53	0x3e2ab4a6	0.16670474
54	0x3e31c76c	0.1736123
55	0x3e0f8dc8	0.14018929
56	0xbe29a47a	-0.16566649
57	0x3cf3b357	0.029748602
58	0x3daa12a2	0.08304335
59	0xbea203c1	-0.3164349
60	0x3e6c60ff	0.23083876
61	0x3d08e4d7	0.033421364
62	0xbe029c99	-0.1275505
63	0x3e690deb	0.22759216
64	0x3d8b174c	0.06791553
65	0xbe8a5076	-0.27014512
66	0x3e8c6410	0.27420092
67	0x3e0a4c09	0.13505568
68	0xbe7c8f53	-0.24664049
69	0x3c5aa202	0.01334429
70	0xbe9dba55	-0.30806223
71	0xbea3b64f	-0.31975028
72	0xbe1c5a79	-0.15268888
73	0xbbd44f95	-0.0064792135
74	0x3d8bbf0b	0.06823548
75	0x3dc643d8	0.09680909
76	0x3e850dc9	0.2598708
77	0xbdc824b0	-0.097726226
78	0x3e5b3fd5	0.21411069
79	0x3da59861	0.080857046
80	0xbe3ee4c2	-0.18641952
81	0xbe24986b	-0.16073768
82	0x3e81ed42	0.25376326
83	0x3d3728dd	0.044716705
84	0x3e437245	0.19086559
85	0x3e925de0	0.28587246
86	0xbc2adfc1	-0.010429324
87	0x3e93163b	0.28727898
88	0xbeb0e490	-0.3454938
89	0xbe6e1cbb	-0.23253147
90	0xbe99243e	-0.29910463
91	0x3db26bf9	0.087120004
92	0xbe0e58c5	-0.1390105
93	0xbe1c004f	-0.15234493
94	0x3c52fd8d	0.012877834
95	0xbd79cdba	-0.06098721
96	0xbd568d12	-0.05238063
97	0xbe6ddfc0	-0.23229885
98	0xbe444c7f	-0.19169806
99	0x3da4ffe5	0.080566205

linear.10.bias f4 [10]
0	0xbe3f892c	-0.1870467
1	0x3e44d0af	0.19220231
2	0xbe787015	-0.24261506
3	0xbe59b8e1	-0.21261932
4	0xbdc62f54	-0.09676996
5	0xbdfee3cc	-0.124457926
6	0xbe9414f0	-0.28922224
7	0x3d86a0c8	0.06573635
8	0x3e9b27b6	0.30303735
9	0x3cadaaea	0.021199662

linear.11.weight f4 [10, 10]
0	0xbe1f762d	-0.15572424
1	0xbe102898	-0.14077985
2	0x3e79b0b9	0.2438382
3	0xbe95f324	-0.29287064
4	0x3c674080	0.014114499
5	0xbe36ecf4	-0.17863828
6	0x3d95b18c	0.07309255
7	0xbe9bb797	-0.30413505
8	0xbe8b637e	-0.27224344
9	0x3dfc14fd	0.12308691
10	0x3e68e071	0.22741868
11	0x3e57e60f	0.21083854
12	0xbdfd888b	-0.12379559
13	0xbd88d782	-0.0668173
14	0x3e99bb59	0.30025747
15	0x3e533db6	0.2062901
16	0x3de9c04a	0.11413629
17	0x3e0f0415	0.13966401
18	0x3e64035e	0.2226691
19	0xbe8284f1	-0.2549205
20	0x3d8ee618	0.06977481
21	0xbe817a02	-0.25288397
22	0x3e9db4f9	0.30802134
23	0xbdb21930	-0.086962104
24	0x3e98ad29	0.2981961
25	0xbe872edc	-0.26402938
26	0x3dd976f4	0.10618392
27	0x3dc935e4	0.09824732
28	0x3d2c6f58	0.042098373
29	0xbe24259a	-0.16029969
30	0xbe31078e	-0.17288038
31	0x3e1f0820	0.15530443
32	0xbe654c63	-0.2239242
33	0xbe3092e6	-0.17243537
34	0xbe74e865	-0.23916776
35	0xbe0ca23b	-0.13733761
36	0xbe481551	-0.19539382
37	0x3de4d332	0.11173095
38	0x3e28089e	0.16409537
39	0x3e0d185d	0.13778825
40	0x3d9ae9d6	0.07564132
41	0xbe791600	-0.24324799
42	0xbe962523	-0.29325208
43	0x3e86df1b	0.2634209
44	0x3e919ab3	0.2843834
45	0x3c5fa842	0.013650956
46	0xbd191550	-0.03737384
47	0xbe8f6f53	-0.2801462
48	0x3dd02a21	0.101642855
49	0x3e512825	0.2042547
50	0xbcf8dbe5	-0.030378291
51	0xbe2342d2	-0.15943459
52	0x3d1235f2	0.035695978
53	0x3dff47d4	0.12464872
54	0x3e970e8b	0.29503283
55	0xbda6efe0	-0.08151221
56	0x3dabd2be	0.08389805
57	0xbe6303ff	-0.22169493
58	0x3e6c3a13	0.23069029
59	0x3db7fecd	0.08984146
60	0xbe4be283	-0.19910626
61	0x3e21cb61	0.15800239
62	0x3ea12339	0.31472185
63	0x3e0210b7	0.12701689
64	0x3c0ec940	0.008714974
65	0x3e1584ed	0.14601488
66	0x3e6306de	0.22170588
67	0x3e817dac	0.25291193
68	0xbdf858b6	-0.12126295
69	0x3dec2833	0.11531105
70	0xbe4471dc	-0.19184059
71	0xbdd948a9	-0.10609562
72	0x3dbac654	0.09119859
73	0x3d0ef280	0.034899235
74	0x3e9593ff	0.29214475
75	0xbe14bc6d	-0.14525004
76	0xbdf64f24	-0.120268136
77	0x3e51e8d9	0.2049898
78	0x3e82393b	0.25434288
79	0xbe6e46c4	-0.23269182
80	0xbd3cc181	-0.046082977
81	0xb9158ec5	-0.00014262933
82	0x3d643c69	0.055721674
83	0x3dc9e2e4	0.09857729
84	0x3d0267f8	0.031837434
85	0x3d9ed3ef	0.07755267
86	0xbe3b69b2	-0.18302038
87	0xbe8fe07f	-0.28100964
88	0xbe08ea1e	-0.13370559
89	0x3e5a6b94	0.213301
90	0xbd0bd9bd	-0.0341432
91	0xbd3466fc	-0.044043526
92	0xbe4dbdbb	-0.20091908
93	0xbe80dce2	-0.2516852
94	0xbe2fdf6c	-0.17175072
95	0xbe00f0e2	-0.1259189
96	0xbdb1e829	-0.08686859
97	0xbdce7fd0	-0.10082972
98	0xbde9cc36	-0.11415903
99	0xbd67e986	-0.05661919

linear.11.bias f4 [10]
0	0x3e86a276	0.26295823
1	0xbd64b890	-0.055840075
2	0xbe7ae846	-0.24502668
3	0xbd296953	-0.04136021
4	0x3eef7f88	0.46776986
5	0xbdd3645e	-0.10321878
6	0x3e8f09f7	0.2793729
7	0xbe330a37	-0.17484365
8	0xbd88b42a	-0.066749886
9	0x3e8023a8	0.25027204

linear.12.weight f4 [10, 10]
0	0x3df251f7	0.1183204
1	0x3e642f84	0.22283751
2	0x3e823d07	0.25437185
3	0xbe0b2f1d	-0.13592191
4	0xbe87c809	-0.26519802
5	0x3e11dec3	0.14245133
6	0xbd776849	-0.06040219
7	0xbe0bb476	-0.13643059
8	0x3e8986da	0.26860696
9	0x3df4ebe6	0.119590566
10	0x3ccc5186	0.024941217
11	0x3ca36cad	0.019949282
12	0xbd504fe8	-0.050857455
13	0xbe938182	-0.28809744
14	0xbeb6cfd3	-0.35705432
15	0xbe79f3aa	-0.24409357
16	0xbe2347bb	-0.15945332
17	0x3e424c6e	0.18974468
18	0x3e84c121	0.25928596
19	0x3e7da5df	0.24770306
20	0x3d8bc983	0.06825545
21	0xbea1d608	-0.31608605
22	0xbe93be97	-0.28856346
23	0xbe28ab57	-0.16471611
24	0xbe906681	-0.28203204
25	0xbe4cc443	-0.19996743
26	0x3e133146	0.14374265
27	0x3da1a6b0	0.07893121
28	0x3e4e2659	0.20131816
29	0xbe75d6c2	-0.24007705
30	0x3ec8dfeb	0.39233336
31	0xbf24f1ba	-0.64431345
32	0x3c3a6620	0.011376888
33	0xbe6cfb4e	-0.2314274
34	0x3e1b849d	0.15187307
35	0x3e415c47	0.18882857
36	0xbe1b4980	-0.15164757
37	0xbe69d4cf	-0.22835086
38	0x3d979024	0.074005395
39	0x3ea84f5d	0.3287305
40	0xbe11fae5	-0.14255865
41	0x3dfbb064	0.12289503
42	0xbde6621e	-0.11249183
43	0xbdf7ac7d	-0.120934464
44	0xbd8951ed	-0.06705079
45	0x3da95d66	0.082697675
46	0x3dbd2ed4	0.092374474
47	0xbab30b5d	-0.0013660003
48	0xbe8d01d7	-0.27540466
49	0xbe7d2bbe	-0.24723718
50	0xbc1be700	-0.009515524
51	0xbd291900	-0.041283607
52	0x3e26b962	0.16281655
53	0x3db26840	0.0871129
54	0x3d232e60	0.03983915
55	0xbd9345a4	-0.07191017
56	0xbdf40bfe	-0.1191635
57	0xbd7d9690	-0.061911166
58	0xbe032149	-0.12805666
59	0x3e89fff5	0.26953092
60	0x3d2113e5	0.039325614
61	0x3e2422c4	0.16028887
62	0xbd636048	-0.055511743
63	0x3e50ba14	0.20383483
64	0x3e1e04df	0.15431546
65	0x3dfe31cb	0.12411841
66	0x3c6e6ff5	0.01455306
67	0xbcb0f985	-0.021603355
68	0xbddfe5f5	-0.10932533
69	0x3e5f784c	0.21823233
70	0xbe7c6c3d	-0.24650665
71	0x3e4df88e	0.20114347
72	0x3e0259fa	0.12729636
73	0x3df1054e	0.1176859
74	0x3e587e81	0.21142007
75	0xbdf3b2b8	-0.11899322
76	0x3e227328	0.15864241
77	0x3e205d61	0.15660621
78	0x3d499dfa	0.049222924
79	0xbd289b72	-0.04116387
80	0xbc667b2d	-0.014067453
81	0xbe9b2185	-0.3029901
82	0x3df876f0	0.121320605
83	0x3de029ed	0.10945497
84	0x3dc8ac17	0.097984485
85	0x3e8cfcd5	0.27536646
86	0xbe370e38	-0.17876518
87	0x3e3217da	0.17391911
88	0xbe19cfbc	-0.1502065
89	0x3e0bf89b	0.13669054
90	0x3e236dd5	0.15959866
91	0xbdce2c87	-0.10067087
92	0x3e998fa1	0.29992393
93	0xbe84dc36	-0.25949258
94	0x3e30a8ee	0.17251942
95	0x3e527b15	0.20554765
96	0xbe6019c8	-0.21884835
97	0x3c03dce0	0.008048266
98	0x3e42702a	0.189881
99	0x3e7777b9	0.24166764

linear.12.bias f4 [10]
0	0xbeb3f98f	-0.35151336
1	0x3e1195a7	0.14217244
2	0x3cb4ad04	0.022055157
3	0x3f01b131	0.50661
4	0xbc872b33	-0.016500091
5	0xbe856058	-0.26050067
6	0xbe04f51a	-0.12984124
7	0xbda261bb	-0.07928797
8	0xbcce15f3	-0.02515695
9	0x3c64e05c	0.013969507

linear.13.weight f4 [10, 10]
0	0x3e8091f9	0.25111368
1	0x3e78a36e	0.24281093
2	0x3d505363	0.050860774
3	0xbd76181d	-0.06008159
4	0xbe7324da	-0.23744527
5	0x3e3850e6	0.1799961
6	0xbc00b1e0	-0.007854909
7	0xbe675510	-0.22591043
8	0x3e82ea25	0.25569263
9	0xbdbd7042	-0.09249927
10	0x3e7cd207	0.24689494
11	0xbd969fa3	-0.07354667
12	0xbe255080	-0.1614399
13	0x3f4cf799	0.80065304
14	0xbe2f398c	-0.17111796
15	0x3de83d28	0.1133979
16	0xbeca76f6	-0.39543885
17	0xbf3031a1	-0.6882573
18	0xbe1e37fb	-0.15451042
19	0x3da8b4be	0.08237599
20	0x3dbee99a	0.093219
21	0x3e52bb7f	0.20579337
22	0xbe944a40	-0.28962898
23	0x3bc4a564	0.0060011614
24	0x3dccfb26	0.1000884
25	0xbe72efea	-0.23724332
26	0xbc16c6b9	-0.009202653
27	0xbdb5b98e	-0.088732824
28	0x3da4ecb1	0.08052958
29	0xbe9cde25	-0.30638233
30	0xbe482ddf	-0.19548748
31	0xbe464a53	-0.1936429
32	0xbe8540ec	-0.26026094
33	0x3eaf2e0e	0.34214824
34	0x3c8cac19	0.017171906
35	0x3dd77d5c	0.10521957
36	0xbcd22e51	-0.025656851
37	0x3c38e90e	0.011286033
38	0xbe940d96	-0.28916615
39	0xbe481b35	-0.19541629
40	0xbe0af337	-0.13569342
41	0xbdb433d6	-0.087989494
42	0xbe0d7f14	-0.13818008
43	0x3e966ea5	0.2938129
44	0xbe1456ec	-0.14486283
45	0x3e1c957c	0.15291399
46	0xbea5d4f6	-0.3238904
47	0xbea16ed1	-0.3152986
48	0x3e817b31	0.252893
49	0x3e671a41	0.22568609
50	0xbe4ca2dc	-0.19984001
51	0x3d0974e8	0.033558756
52	0x3df1e711	0.118116505
53	0x3e985d51	0.29758695
54	0xbe5a87c2	-0.2134085
55	0x3df3f434	0.119118124
56	0xbe8dde18	-0.27708507
57	0xbe0d3b4c	-0.13792151
58	0xbd9bafdd	-0.07601903
59	0xbe7813bc	-0.24226278
60	0xbe5e9c95	-0.21739419
61	0x3de0288c	0.10945234
62	0xbe7f8878	-0.24954402
63	0xbe1495f8	-0.14510334
64	0xbe07498b	-0.13211648
65	0x3e319c14	0.17344695
66	0xbe840d69	-0.2579148
67	0x3e57839a	0.21046296
68	0xbe58d41a	-0.2117466
69	0x3db94650	0.09046614
70	0x3e0c12d6	0.1367906
71	0x3d7b1773	0.06130166
72	0x3e3945be	0.18093011
73	0x3b72d95e	0.003705583
74	0x3dca3155	0.098726906
75	0x3e9292bb	0.2862757
76	0x3e4c61a4	0.19959122
77	0x3e7b6174	0.24548894
78	0xbe975463	-0.2955657
79	0x3e54503c	0.20733732
80	0xbe37f4ee	-0.17964527
81	0xbe368ba2	-0.17826703
82	0x3e3a4f9a	0.18194428
83	0x3e80bc91	0.25143865
84	0xbe523e9b	-0.20531695
85	0x3de05a2c	0.10954699
86	0xbe1c9947	-0.15292846
87	0x3e68aebd	0.22722907
88	0xbd1c6298	-0.038179964
89	0xbcdb9450	-0.02680412
90	0xbd9bb428	-0.076027215
91	0xbe99917b	-0.29993805
92	0x3e844a3e	0.25837892
93	0x3d4930d9	0.04911885
94	0xbe31908e	-0.173403
95	0x3de537f8	0.11192316
96	0xbd95d046	-0.07315116
97	0xbe2e6636	-0.17031178
98	0xbea16874	-0.31525004
99	0xbda08dba	-0.07839532

linear.13.bias f4 [10]
0	0xbd390b15	-0.045176584
1	0x3f00d8bc	0.5033071
2	0x3ee3eadf	0.4451513
3	0x3e26483c	0.16238493
4	0x3e641a7e	0.22275731
5	0x3d1f29c6	0.038858198
6	0xbdeef53c	-0.116678685
7	0xbe39c156	-0.18140158
8	0xbe418ff0	-0.18902564
9	0xbd8ecb5c	-0.069723815

linear.14.weight f4 [10, 10]
0	0xbe4db0cb	-0.20086972
1	0x3e399404	0.1812287
2	0xbea5b414	-0.3236395
3	0xbe96fa01	-0.29487613
4	0xbe95bb07	-0.29244253
5	0x3e72cdea	0.23711362
6	0xbe843a2d	-0.25825635
7	0xbc5af84d	-0.013364864
8	0x3e5e1edf	0.21691464
9	0xbe061b1a	-0.13096276
10	0xbe9b9799	-0.30389097
11	0x3df23cdc	0.11828014
12	0xbd97f078	-0.07418913
13	0xbd0af42a	-0.03392426
14	0xbd87123b	-0.06595274
15	0xbdc5a3c4	-0.096503764
16	0x3de571a0	0.11203313
17	0x3e366ddb	0.17815344
18	0x3e96e9a9	0.29475144
19	0x3e34abe1	0.17643692
20	0xbde43868	-0.11143571
21	0xbe1cfa50	-0.15329862
22	0xbcec3d20	-0.02883774
23	0xbe740e95	-0.23833688
24	0xbdb97c9a	-0.09056969
25	0xbe1b481d	-0.15164228
26	0xbe2b8f92	-0.16753986
27	0xbe8e70e6	-0.2782051
28	0x3d961cf4	0.07329741
29	0x3de1f5c8	0.11033207
30	0x3e9f0eef	0.3106608
31	0x3f7f27e4	0.99670243
32	0x3cc58d4e	0.02411523
33	0x3e85fc42	0.2616902
34	0x3eb9d5e3	0.36295995
35	0xbd07c6df	-0.033148643
36	0x3e5e322e	0.2169883
37	0xbedd3bc3	-0.43209657
38	0x3e87ef23	0.26549634
39	0xbe129e28	-0.14318144
40	0xba2d6e00	-0.00066158175
41	0x3e0fd7d4	0.14047176
42	0xbde51392	-0.11185373
43	0x3e4bb9bf	0.19895075
44	0xbda06e56	-0.07833545
45	0xbdd4e4c6	-0.103951976
46	0xbd3840b8	-0.044983596
47	0xbd65b440	-0.056080103
48	0x3e576958	0.21036279
49	0xbe9ae3ed	-0.3025202
50	0x3d1b2ffd	0.037887562
51	0x3ee38217	0.44435188
52	0x3d45f946	0.04833343
53	0xbe696810	-0.22793603
54	0x3eced40b	0.4039615
55	0x3eb2ff3b	0.3496035
56	0x3d7e66b8	0.06210968
57	0xbe54acaf	-0.20768999
58	0x3e2c54a1	0.16829158
59	0xbdb0320d	-0.086032964
60	0xbc36ed67	-0.011165
61	0xbee50e47	-0.44737455
62	0x3e4a8937	0.19778906
63	0x3bd9e16c	0.006649187
64	0x3e3e2b91	0.18571307
65	0x3d83a1da	0.06427355
66	0x3e65149e	0.22371146
67	0x3e4f792a	0.20261064
68	0x3dc6e2e4	0.09711245
69	0xbe610709	-0.2197534
70	0x3da891d9	0.08230943
71	0x3cfd0639	0.030886756
72	0xbe97cf3b	-0.29650292
73	0x3d73e970	0.059548795
74	0x3ea4caa3	0.3218585
75	0x3e757069	0.23968662
76	0xbd13c988	-0.036080867
77	0xbce21e08	-0.02760221
78	0xbe3e4baa	-0.18583551
79	0x3e14f092	0.14544895
80	0xbc9604c4	-0.01831282
81	0xbd21b544	-0.03947951
82	0xbe7014d3	-0.23445444
83	0xbe19f9de	-0.15036723
84	0x3e4f5e15	0.20250733
85	0x3dddbc86	0.108269736
86	0xbe2bbcd7	-0.16771255
87	0x3e398500	0.18117142
88	0x3d9e351a	0.07724972
89	0x3e1f92c1	0.15583326
90	0x3e55711a	0.20843926
91	0xbbc37400	-0.005964756
92	0xbe9847b2	-0.297422
93	0x3e87a53f	0.2649326
94	0x3de8e87c	0.11372468
95	0xbd8d88be	-0.06910847
96	0xbe01ee27	-0.12688504
97	0xbe5de4b4	-0.21669275
98	0xbd90adc4	-0.07064393
99	0x3e00c184	0.1257382

linear.14.bias f4 [10]
0	0xbdbe3fbd	-0.09289501
1	0xbe45d749	-0.19320406
2	0xbe3e43c6	-0.18580541
3	0x3f49ceab	0.78830975
4	0x3dbb5801	0.09147645
5	0x3f6d6d80	0.9274521
6	0x3d520502	0.051274307
7	0xbcd2e584	-0.025744207
8	0xbf0fda02	-0.5619203
9	0xbe192a32	-0.14957502

linear.15.weight f4 [10, 10]
0	0xbd1bb628	-0.038015515
1	0x3e0a2dbc	0.13494009
2	0x3db365a4	0.08759621
3	0xbe886af4	-0.266441
4	0xbe9b0c70	-0.30282927
5	0xbe4ac899	-0.19803084
6	0x3e321ac6	0.17393026
7	0xbdcc5e98	-0.0997898
8	0x3da05048	0.078278124
9	0x3e52d246	0.20588025
10	0xbe99871e	-0.299859
11	0xbe506575	-0.20351203
12	0xbda12816	-0.07868974
13	0x3e8333fb	0.25625595
14	0xbdea5ac3	-0.11443093
15	0x3e24978e	0.16073439
16	0xbd397ad5	-0.045283157
17	0x3da3a65b	0.07990714
18	0xbcc9e2f0	-0.024644345
19	0xbe7a53fe	-0.24446103
20	0xbe742da9	-0.23845543
21	0xbe85b938	-0.26117873
22	0x3d94ea4c	0.07271251
23	0x3e9c28c8	0.30499864
24	0x3e3333c2	0.17500213
25	0x3e7b48f9	0.24539556
26	0xbf011b84	-0.5043261
27	0xbd6fa7ce	-0.05850964
28	0x3e90c304	0.28273785
29	0xbe88edad	-0.26743832
30	0xbe84d20b	-0.259415
31	0xbe895ffc	-0.26831043
32	0xbe6a2033	-0.22863846
33	0x3f199711	0.59996134
34	0x3de3d8d9	0.11125345
35	0x3e711e37	0.23546682
36	0xbf4e3fba	-0.8056599
37	0xbe17f6f4	-0.14840299
38	0xbe6b086c	-0.22952431
39	0xbe10c515	-0.14137681
40	0xbe5bdf65	-0.21471937
41	0x3db4895f	0.08815264
42	0x3d8f822c	0.0700725
43	0xbe2e601d	-0.17028852
44	0x3e3ef7ca	0.18649212
45	0x3d3c0a61	0.045908336
46	0xbe970177	-0.29493305
47	0x3e24a773	0.16079502
48	0x3dd9a742	0.10627605
49	0xbd24edb8	-0.04026577
50	0xbe44938a	-0.19196907
51	0x3d4241fa	0.0474262
52	0x3c9e5960	0.019329727
53	0xbdb79ef6	-0.08965866
54	0x3e89586b	0.2682527
55	0xbe8b725b	-0.27235684
56	0xbe890ed2	-0.2676912
57	0xbe9fa265	-0.31178585
58	0x3e694794	0.22781211
59	0xbc8980e0	-0.016785085
60	0xbdbbd21e	-0.09170936
61	0xbdfef739	-0.12449498
62	0x3e9e695d	0.3093976
63	0x3f26e422	0.65191853
64	0xbdac44a8	-0.08411533
65	0x3ecab510	0.39591265
66	0xbeaf15f5	-0.3419644
67	0x3e62eb38	0.22160041
68	0xbe5101b4	-0.20410806
69	0x3c87f950	0.016598374
70	0x3e914044	0.28369343
71	0xbdf232a2	-0.11826064
72	0xbde7565e	-0.1129577
73	0x3ee6b527	0.45060083
74	0x3b917be8	0.0044398196
75	0x3eb562f9	0.35427073
76	0xbde45fc2	-0.11151077
77	0xbde444a1	-0.111459024
78	0xbe67dc89	-0.22642721
79	0x3e8dcc0f	0.27694747
80	0xbe61d1e5	-0.22052725
81	0x3cdda368	0.027055457
82	0xbda18e10	-0.078884244
83	0xbdfdbe6c	-0.12389836
84	0x3dad907b	0.08474823
85	0x3e35a509	0.17738737
86	0xbe9bd2e2	-0.30434328
87	0x3e94b199	0.29041746
88	0x3d7f6630	0.062353313
89	0xbcbfd200	-0.023415565
90	0x3ea2ad9d	0.3177308
91	0xbe89242f	-0.26785418
92	0xbe8c5466	-0.2740814
93	0x3e944a51	0.2896295
94	0xbd0f077d	-0.03491925
95	0xbd37b9fb	-0.0448551
96	0xbea7ea61	-0.32796004
97	0x3e386ab4	0.18009454
98	0xbe5524d4	-0.2081483
99	0x3e68f67a	0.22750273

linear.15.bias f4 [10]
0	0x3e12b51f	0.14326905
1	0xbdee7959	-0.11644239
2	0xbe1a4b38	-0.15067756
3	0x3cd83730	0.026393503
4	0x3d0247b7	0.031806674
5	0xbd8afc8a	-0.06786449
6	0x3f5cee5a	0.86301196
7	0x3fcbdad1	1.5926152
8	0xbd913c07	-0.070915274
9	0x3d09b6b9	0.033621524
